best_model.pth (torch, 60262 bytes, 5 tensors)

features.0.weight f4 [8, 3, 5, 5]
0	0xbd97df5c	-0.07415649
1	0x3cd0a1b6	0.025467735
2	0x3d4aa193	0.049470495
3	0x3d1312b7	0.03590652
4	0xbb01dd2e	-0.0019815671
5	0xbdc65026	-0.09683256
6	0x3d4ef2f9	0.050524686
7	0x3d8d46d7	0.06898277
8	0xbdac6adf	-0.084188215
9	0x3bb18e34	0.0054185633
10	0xbd8f3e2f	-0.069942825
11	0x3db15472	0.08658685
12	0x3cfe83e7	0.031068755
13	0xbd05087c	-0.032478794
14	0x3d94980b	0.072555624
15	0xbde62f03	-0.112394355
16	0xbd82c9e1	-0.063861616
17	0x3cfcbb71	0.030851098
18	0xbdc64a40	-0.09682131
19	0x3c86128b	0.016366264
20	0x3dbd8d5e	0.09255479
21	0xbdb95546	-0.09049468
22	0x3d608bb1	0.05482072
23	0xbdaabe8e	-0.08337127
24	0x3ccd8227	0.025086476
25	0xbd9223b4	-0.07135716
26	0x3c03601e	0.008018522
27	0xbcb5cb92	-0.022191796
28	0x3dab9ec3	0.08379891
29	0x3dc1222d	0.09430347
30	0x3b9952f2	0.0046790773
31	0xbd7bf1cb	-0.06150989
32	0x3d7601e4	0.060060397
33	0x3d97e39c	0.0741646
34	0xbd09f301	-0.033679012
35	0x3d817831	0.06321753
36	0x3dde0494	0.10840717
37	0x3b230353	0.0024873808
38	0x3d98351f	0.07432007
39	0x3bd86458	0.006603759
40	0xbcdcd586	-0.026957285
41	0xbde0a037	-0.109680586
42	0xbd60e069	-0.054901514
43	0xbdcbc14d	-0.099489786
44	0x3c8c75ea	0.01714607
45	0xbdbe2adb	-0.09285518
46	0xbdba79f7	-0.09105294
47	0xbd53bf2a	-0.05169598
48	0xbbf6544d	-0.0075173737
49	0xbdd58982	-0.10426618
50	0xbddb5b48	-0.1071077
51	0x3dca2a01	0.09871293
52	0xba24966b	-0.00062785175
53	0xbd58f780	-0.05297041
54	0xbd6ab042	-0.057297
55	0x3cb7bca6	0.022428822
56	0xbdc41ea0	-0.09576154
57	0xbd688e20	-0.056776166
58	0x3d8022bc	0.06256625
59	0xbdb750cf	-0.0895096
60	0xbd5fa100	-0.0545969
61	0x3c56a34b	0.0131004555
62	0xbd84900b	-0.064727865
63	0xbd57a423	-0.052646767
64	0xbc8e28ad	-0.01735338
65	0x3d95787d	0.07298372
66	0xbd4a6b5f	-0.049418803
67	0x3d00d503	0.031453144
68	0xbde82b4d	-0.11336384
69	0xbde01346	-0.10941176
70	0xbc36f58f	-0.011166944
71	0x3d9483bb	0.07251688
72	0x3de54fb8	0.11196846
73	0x3d0024d0	0.031285107
74	0xbda2d35b	-0.07950469
75	0xbc1bda46	-0.00951249
76	0x3d746bc5	0.05967309
77	0xbc40155e	-0.011723844
78	0xbd649bf3	-0.055812787
79	0xbd392f6c	-0.04521124
80	0x3db91a45	0.09038214
81	0x3d770c98	0.060314745
82	0xbd8971a8	-0.06711131
83	0x3d7c58a7	0.061607983
84	0x3cbc6343	0.02299655
85	0xbcade8c9	-0.021229165
86	0x3cf389eb	0.02972885
87	0xbdc2b908	-0.09507948
88	0xbdca0624	-0.098644525
89	0x3d8b643a	0.06806226
90	0x3d94f042	0.07272388
91	0x3db6c82b	0.08924898
92	0xbd957df7	-0.072994165
93	0x3d95b86f	0.073105685
94	0x3c999794	0.018749036
95	0x3cf5a389	0.029985206
96	0xbd6f9065	-0.058487315
97	0x3bf16a43	0.0073674037
98	0xbbb3e350	-0.0054897442
99	0xbdad39a7	-0.08458262
100	0x3d7e1b9e	0.062038057
101	0xbcc42ac0	-0.023946166
102	0x3c46a946	0.012125319
103	0x3d521eba	0.051298834
104	0xbcf37dce	-0.029723074
105	0xbb8ed7a5	-0.004359203
106	0x3d9bdc24	0.07610348
107	0x3d7d2b24	0.06180872
108	0x3dc6b2c8	0.097020686
109	0x3d001aea	0.031275667
110	0x3dc67889	0.09690959
111	0x3c00896f	0.007845267
112	0xbc5bbfea	-0.013412455
113	0xbd55f94b	-0.052239697
114	0x3d073199	0.033006284
115	0x3cf67920	0.030087054
116	0x3d9b4f9b	0.07583543
117	0xbc3dd094	-0.011585373
118	0x3d90e582	0.07075025
119	0x3c88450d	0.016634488
120	0xbc9af7df	-0.018917022
121	0x3c95b1b1	0.018273206
122	0xbdb67839	-0.089096494
123	0x3db5bb2e	0.08873592
124	0xbbefa0d0	-0.0073128715
125	0x3c26a9e1	0.010172338
126	0x3dd9c357	0.10632961
127	0x3b86ef45	0.0041178786
128	0x3c9a243b	0.018816104
129	0x3d378e7a	0.04481361
130	0xbdeb3a67	-0.11485749
131	0xbd0331a7	-0.032029774
132	0xbdc1ca11	-0.09462369
133	0xbc2a9dda	-0.010413611
134	0xbc62ba2a	-0.01383833
135	0x3db0086c	0.08595356
136	0xbd2eb7ff	-0.04265594
137	0xbc1e7b52	-0.009672957
138	0xbd46296c	-0.048379347
139	0x3d9f8e6b	0.07790836
140	0xbd7a05a3	-0.06104053
141	0x3da7fb8d	0.082022764
142	0xbd0c6fc8	-0.03428629
143	0xbdc0e1d5	-0.09418074
144	0xbb86698e	-0.0041019386
145	0x3d3aa2f8	0.045565575
146	0xbc685257	-0.014179788
147	0xbd12942e	-0.035785846
148	0xbd79a799	-0.06095085
149	0x3db1c621	0.08680368
150	0x3cba86db	0.022769382
151	0x3ba83fef	0.0051345746
152	0xbd638d6b	-0.05555479
153	0x3bfb553a	0.007670072
154	0xbd33b8c0	-0.043877363
155	0xbcaa223c	-0.020768277
156	0x3d32748f	0.04356819
157	0x3b3a03ca	0.0028383606
158	0x3d4f9a1e	0.050684087
159	0x3c687ebe	0.014190374
160	0xbb401cb1	-0.0029313976
161	0x3d3b06f7	0.04566094
162	0xbdb4c568	-0.08826715
163	0x3d8c94fc	0.06864354
164	0xbd60e450	-0.054905236
165	0x3d1aebfb	0.037822705
166	0xbd35798a	-0.04430536
167	0xbd7acbe9	-0.06122962
168	0x3c9dbc7f	0.019254921
169	0x3d5ba4d3	0.053623985
170	0xbcbd034a	-0.023072857
171	0xbd0c7130	-0.03428763
172	0x3d5961f0	0.053071916
173	0x3da1270c	0.07868776
174	0xbdb45077	-0.0880441
175	0x3d3f4f2b	0.04670636
176	0x3db54dcf	0.088527314
177	0x3dada884	0.084794074
178	0xbd2eff01	-0.04272366
179	0x3d09173b	0.03346942
180	0xbdbcc6e7	-0.09217625
181	0xbb80696c	-0.0039188173
182	0xbd1bcba5	-0.038036007
183	0xbcd4bf0f	-0.02597001
184	0xbd947cd0	-0.072503686
185	0xbd74320a	-0.059618033
186	0xbde477d6	-0.111556694
187	0x3d01d4c5	0.031697053
188	0x3d9eb330	0.07749021
189	0x3db472b8	0.08810943
190	0x3d6ea939	0.058266852
191	0xbdbea77c	-0.09309289
192	0x3d4329e2	0.047647364
193	0x3da8d1cb	0.0824314
194	0x3d332e53	0.04374535
195	0x3d76ec13	0.06028373
196	0x3ce00cf5	0.027349928
197	0xbd7c6ebb	-0.06162904
198	0xbda07e98	-0.07836646
199	0x3d1d9340	0.038470507
200	0xbbac16c8	-0.005251739
201	0x3d9d829b	0.07690927
202	0xbc0c758f	-0.00857295
203	0xbdf22aa4	-0.11824539
204	0x3dddb18d	0.10824881
205	0xbd1a1c46	-0.03762462
206	0x3d405636	0.046957217
207	0xbdf466d8	-0.119336784
208	0x3d9cf66a	0.07664187
209	0x3dc9e630	0.09858358
210	0x3db6211c	0.08893034
211	0xbdeec4b8	-0.11658615
212	0x3b69129e	0.0035564075
213	0xbd8526a5	-0.065015115
214	0x3d96d49d	0.073647715
215	0xbbb4661d	-0.005505337
216	0x3d48970a	0.048972167
217	0xbc1abe13	-0.009444731
218	0xbdc03731	-0.09385527
219	0x3cf9c052	0.030487213
220	0x3d3a3eac	0.045469925
221	0xbd91f150	-0.07126105
222	0x3ddb78e3	0.10716417
223	0x3a324943	0.0006801078
224	0x3d67675d	0.05649506
225	0xbd19eaa5	-0.03757729
226	0xbde146b5	-0.109998144
227	0x3d897e8f	0.06713592
228	0x3d1811e2	0.03712643
229	0xbda6b387	-0.08139711
230	0x3c2c4c29	0.010516205
231	0x3d5075b2	0.050893493
232	0xbdb18378	-0.08667654
233	0xbd06ddc9	-0.032926355
234	0xbc75d471	-0.015004263
235	0x3d0482a9	0.03235117
236	0xbdbb48be	-0.09144734
237	0xbdd14984	-0.102191
238	0xbd42592a	-0.047448315
239	0xbdcb6512	-0.09931387
240	0xbd0c609b	-0.034271818
241	0x3dc533a5	0.09628991
242	0x3dbbb020	0.091644526
243	0xbdbf53ac	-0.09342131
244	0x3d8fdc84	0.07024482
245	0xbdde5258	-0.108555496
246	0xbdd71b20	-0.105032206
247	0x3d42224b	0.047395986
248	0x3d1488e1	0.03626335
249	0xbd1702ee	-0.03686803
250	0xbd645ff0	-0.055755556
251	0xbd51ea20	-0.05124867
252	0xbaba8162	-0.0014229233
253	0xbdc41af9	-0.09575457
254	0xbde70c71	-0.1128167
255	0xbc214441	-0.009842933

features.0.bias f4 [8]
0	0xbcc2caa1	-0.023778262
1	0xbc16adf0	-0.009196743
2	0xbd95a863	-0.07307508
3	0xbd9621ae	-0.07330643
4	0x3d285a97	0.04110202
5	0x3d3e31ee	0.046434335
6	0xbdaf4c1b	-0.08559438
7	0x3d3ce04f	0.046112355

features.2.weight f4 [16, 8, 5, 5]
0	0x3a0f3300	0.00054626167
1	0x3c96f0a4	0.018425293
2	0xbd2d48ac	-0.042305633
3	0xbd6aba48	-0.057306558
4	0x3cc96efc	0.024589054
5	0x3bce7f90	0.0063018277
6	0xbca60db0	-0.020270199
7	0x3d2a2b4c	0.041545197
8	0xbcb42e06	-0.021994602
9	0xbd90b2b9	-0.07065339
10	0xbcdd0322	-0.026979033
11	0xbd5a27cf	-0.05326062
12	0xbd2fc4b7	-0.04291221
13	0x3d364082	0.044495113
14	0xbd30a4ba	-0.043125845
15	0x3d6a64da	0.057225086
16	0x3d0d7f00	0.034544945
17	0xbcdf2096	-0.027237218
18	0xbd4b0829	-0.04956833
19	0x3d7ba87e	0.061439984
20	0xbca58d86	-0.020209085
21	0x3be15a00	0.006877184
22	0xbd19a67d	-0.03751229
23	0x3d7f4f12	0.062331267
24	0x3ce6d824	0.028179236
25	0x3d720151	0.059083287
26	0x3d4d462f	0.05011576
27	0xbceafd3f	-0.02868521
28	0xbd54c5b3	-0.051946353
29	0xbd8b1941	-0.06791926
30	0xbb9d5e79	-0.004802522
31	0x3cebaf7e	0.028770205
32	0xbbaf26f5	-0.00534522
33	0x3d586a55	0.05283578
34	0xbd6a514f	-0.05720645
35	0xbc1a1678	-0.009404771
36	0x39b931f2	0.00035323162
37	0xbd67a1f3	-0.05655093
38	0x3ad5b511	0.0016304572
39	0x3c5ac5fb	0.013352866
40	0x3ceb605e	0.028732475
41	0xbd2e12fe	-0.04249858
42	0x3c5370d4	0.012905318
43	0xbd547dc8	-0.051877767
44	0xbd627d6a	-0.055295385
45	0x3cafda3d	0.021466369
46	0xbd96806d	-0.07348714
47	0x3b49ac5a	0.0030772896
48	0xbd8aeebd	-0.06783817
49	0x3d628bd0	0.055309117
50	0xbd968a50	-0.073506
51	0xbd827e7d	-0.06371782
52	0x3d5cc2c8	0.053896695
53	0xbc8603fe	-0.016359325
54	0xbd798069	-0.060913477
55	0x3d24991b	0.040185075
56	0xbcce5246	-0.025185715
57	0xb9eb4f7d	-0.00044881916
58	0x3d30db31	0.043177787
59	0x3bff5727	0.007792372
60	0xbd96547d	-0.073403336
61	0x3ca6b619	0.020350503
62	0xbd19f9d2	-0.037591763
63	0xba1652e3	-0.0005734397
64	0x3bae0168	0.005310226
65	0x3d1955da	0.03743539
66	0xbaa4c4ad	-0.0012570821
67	0xbc520ee8	-0.012820937
68	0xbd63dfbd	-0.055633295
69	0xbc3336c7	-0.010938353
70	0xbd103327	-0.035205033
71	0x3c325ca8	0.010886349
72	0xbd57f300	-0.052721977
73	0xbd159b0f	-0.03652483
74	0xbb904ea8	-0.004403908
75	0xbd8c0306	-0.06836514
76	0x3c30b724	0.010785852
77	0x3d44fe70	0.048094213
78	0x3c092b38	0.008372121
79	0x3d92ed08	0.071741164
80	0x3d722652	0.059118576
81	0x3c446570	0.011987075
82	0xbc35d498	-0.01109805
83	0xbcd23789	-0.025661247
84	0xbd41e89d	-0.047340978
85	0xbd382e06	-0.044965766
86	0x3d41ba48	0.047296792
87	0xbcc49afa	-0.02399968
88	0xbc006350	-0.007836178
89	0xbc7c18b1	-0.015386746
90	0x3d5665cd	0.05234318
91	0xbd035bab	-0.032069843
92	0x3d5dc7ec	0.05414574
93	0xbcc9967b	-0.024607887
94	0x3ca45018	0.020057723
95	0xbd25a726	-0.04044261
96	0x39d94abe	0.00041445153
97	0x3cdb5558	0.026774094
98	0x3d1d1c37	0.038356986
99	0x3d0475fa	0.032339074
100	0x3d472924	0.04862322
101	0xbc9dd012	-0.019264255
102	0xbaf09e4a	-0.0018357721
103	0x3c8c9482	0.017160658
104	0xbd83c4cb	-0.0643402
105	0xbbebec19	-0.007199776
106	0x3cd07340	0.02544558
107	0x3d7a604b	0.06112699
108	0xbd83b4cc	-0.06430969
109	0xbcd742c4	-0.026276954
110	0xbcb9cb54	-0.022679962
111	0x3d79352c	0.060841724
112	0x39eee5f4	0.00045566226
113	0x3b231b88	0.0024888236
114	0x3ced0997	0.028935237
115	0x3d037f6d	0.032103945
116	0xbcbb5512	-0.022867713
117	0x3d769366	0.060199164
118	0xbd703ac1	-0.058649782
119	0xbb8e74a6	-0.0043474017
120	0x3c7233f0	0.014782891
121	0xbcd99d79	-0.026564347
122	0x3d624fc3	0.055251848
123	0xbd8118c8	-0.06303555
124	0xbd41d116	-0.04731854
125	0xbd44d82c	-0.04805772
126	0x3c6c8103	0.014435056
127	0xbd875558	-0.06608075
128	0x3c52546f	0.012837513
129	0xbd06cba5	-0.032909054
130	0x3d45aab8	0.048258513
131	0xbb2cebf6	-0.002638576
132	0xbd520010	-0.05126959
133	0xbd8cb0e9	-0.068696804
134	0x3b12b254	0.0022384124
135	0xbd4f06f6	-0.050543748
136	0xbd81bce6	-0.06334858
137	0xbd89a0db	-0.06720134
138	0xbc811c68	-0.015760615
139	0xbbeea8b5	-0.007283295
140	0x3d07307f	0.033005234
141	0x3d8d6f5e	0.06906007
142	0x3cfd27bb	0.030902734
143	0xbd838223	-0.06421306
144	0x3cac8430	0.021059126
145	0xbc5f70de	-0.0136377495
146	0x3d3b7dfc	0.045774445
147	0xbb66c6bf	-0.0035213677
148	0xbd8e25d0	-0.06940806
149	0xbc091f38	-0.00836926
150	0x3a8bbcfa	0.0010661178
151	0x3c9029b2	0.017598007
152	0xbc61d4c3	-0.0137836365
153	0x3d3e52dc	0.04646574
154	0xbd8baa63	-0.06819608
155	0x3d45767d	0.048208702
156	0xbd3e07f3	-0.0463943
157	0x3d47ba26	0.04876151
158	0x3d683664	0.056692496
159	0x3cbd870e	0.023135688
160	0xbcaecf35	-0.021339038
161	0x3d29ceea	0.041457094
162	0xbc4e5570	-0.012593612
163	0x3c341c65	0.010993098
164	0xbd07dea0	-0.033171296
165	0xbd75ecbb	-0.060040217
166	0xbceb8c0a	-0.0287533
167	0x3d683e3a	0.05669997
168	0xbd2bf567	-0.04198208
169	0x3d67b962	0.05657328
170	0x3c41fc1d	0.011839894
171	0xbd84dd71	-0.06487549
172	0xbd2542b5	-0.04034682
173	0xbc257923	-0.010099682
174	0x3cc27452	0.023737106
175	0x3d89a5af	0.06721055
176	0xbd0e39d2	-0.03472311
177	0x3d033a34	0.03203793
178	0xbc0439fb	-0.008070464
179	0xbb68e451	-0.0035536478
180	0x3c59fbfd	0.013304708
181	0xbb9c9330	-0.0047782883
182	0xbd484f46	-0.048903726
183	0x3d0f6e7a	0.035017468
184	0xbce8cb22	-0.028417174
185	0x3d103956	0.03521093
186	0xbd52e2c7	-0.051485803
187	0xbd87a28c	-0.066228
188	0xbc622bb1	-0.013804362
189	0x3cf187d0	0.029483706
190	0x3d05defd	0.03268336
191	0xbc9f6884	-0.019459017
192	0x3c7d9c90	0.015479222
193	0xbcce10b6	-0.025154453
194	0x3c9f805c	0.019470386
195	0x3d4d52bc	0.05012773
196	0xbd59fb05	-0.053217907
197	0xbd42e7a4	-0.04758419
198	0xbbd2c4a0	-0.006432131
199	0xbcb16d80	-0.021658659
200	0x3d574ce0	0.052563548
201	0x3d4b453e	0.04962658
202	0xbd556c92	-0.052105494
203	0xbcdec35f	-0.02719277
204	0x3d6238d3	0.055229973
205	0x3d2b4d34	0.041821674
206	0x3bf8f742	0.007597835
207	0xbd252014	-0.040313795
208	0xbd9362ec	-0.07196602
209	0xbd8999fb	-0.067188226
210	0x3d3b4dbc	0.04572843
211	0xbc80f12a	-0.015739996
212	0xbcc5f6d2	-0.024165545
213	0x3cb07a4e	0.021542694
214	0xbc8bca44	-0.017064221
215	0xbc92d964	-0.017925926
216	0x3d8f48cd	0.069963075
217	0x3d2948ea	0.041329302
218	0xbd1bb575	-0.038014848
219	0x3c9d4d6d	0.019201959
220	0xbd0ebe95	-0.034849722
221	0xbc482478	-0.012215726
222	0xbbf2e4b0	-0.0074125156
223	0xbd510dab	-0.051038425
224	0x3d7cac39	0.06168768
225	0xbcbdefb5	-0.02318559
226	0x3cf2e5c6	0.02965058
227	0xbc59314f	-0.013256385
228	0xbc27a768	-0.010232784
229	0x3d26e7b8	0.040748328
230	0xbcacad83	-0.02107883
231	0xbc117639	-0.008878284
232	0xbbda5491	-0.006662913
233	0x3d86f9a1	0.06590582
234	0x3d3c7b9d	0.046016324
235	0xbd8df48f	-0.069314115
236	0x3d83640f	0.06415569
237	0x3cf6128c	0.03003814
238	0x3ca1fb85	0.019773254
239	0x3c9991ee	0.018746343
240	0x3cc182eb	0.023621997
241	0x3d063357	0.032763805
242	0xbc4760ac	-0.012169044
243	0xbd20a02c	-0.03921525
244	0x39db4569	0.0004182265
245	0x3d32fe16	0.043699346
246	0x3d0a36a8	0.03374353
247	0x3d7f0af5	0.06226631
248	0xbbf7bfa4	-0.007560687
249	0xbd75d96c	-0.060021803
250	0xbd5ba7a0	-0.053626657
251	0xbd4adc23	-0.049526345
252	0x3c851b06	0.016248237
253	0xbd81f243	-0.06345036
254	0x3c951581	0.01819873
255	0x3d879596	0.06620328

features.2.bias f4 [16]
0	0x3d81a420	0.063301325
1	0xbc8cd57c	-0.017191641
2	0xbb848e2f	-0.00404527
3	0x3d23dc00	0.04000473
4	0xbd2c1ad8	-0.042017788
5	0xbd817c08	-0.06322485
6	0x3cd0e6e3	0.02550072
7	0x3c22d46c	0.009938341
8	0xbd6b1913	-0.05739696
9	0xbc798f5b	-0.0152319325
10	0x3d6776c9	0.056509767
11	0x3d6570ea	0.056015886
12	0x3ba529ce	0.005040384
13	0x3c8dc258	0.017304584
14	0x3d6b8148	0.05749634
15	0xbc805158	-0.015663788

regressor.1.weight f4 [1, 10528]
0	0x3bb89592	0.0056330645
1	0x3a5cf07f	0.00084281707
2	0x3a7865a0	0.00094755925
3	0xbad18f18	-0.001598808
4	0x3b9dfe6c	0.004821589
5	0x38a4c501	7.856824e-05
6	0xbb6cca94	-0.0036131488
7	0xbad5ecb8	-0.0016321158
8	0x3b7e5e1c	0.0038813418
9	0x3bb40b94	0.0054945443
10	0x3ad02460	0.0015879981
11	0xbc079c7a	-0.008277053
12	0xba190950	-0.00058378745
13	0xbb80756f	-0.003920249
14	0x3b072f70	0.002062764
15	0x3c125e10	0.008933559
16	0xbc1eb6ce	-0.009687139
17	0x3b30cdc4	0.0026978115
18	0x3ba17166	0.004926848
19	0xbb97ff9e	-0.0046386262
20	0x3bdfc5a8	0.0068289824
21	0xbbdd8876	-0.006760652
22	0x3aca2d68	0.0015424909
23	0x3be6ffb4	0.007049525
24	0x3b1f4668	0.002430344
25	0x3c15205e	0.009101955
26	0xbbe50a36	-0.0069897426
27	0x3acf1350	0.0015798602
28	0xbc132baf	-0.008982583
29	0xbbe779d6	-0.0070640845
30	0x3c16a768	0.009195186
31	0xbc282982	-0.0102638025
32	0xbc0453c4	-0.008076612
33	0xba7b59c0	-0.0009588264
34	0x3a340a90	0.0006868029
35	0xbb3d99ac	-0.0028930707
36	0xbbf17808	-0.007369045
37	0x3bec9e30	0.007221006
38	0x3b755a49	0.0037437847
39	0xbc0f1317	-0.008732579
40	0x3c10e60d	0.008843911
41	0x3b1ec83c	0.0024228236
42	0xbbc33086	-0.005956712
43	0xba73dfd0	-0.0009303065
44	0x3c19511b	0.009357716
45	0xbaecd8d8	-0.0018069996
46	0xbbd55243	-0.0065100505
47	0xbb9e744a	-0.00483564
48	0x3b9f1682	0.004854978
49	0xbbc14594	-0.005898187
50	0xbbe37b29	-0.006942172
51	0x3b0e3478	0.0021698754
52	0xbb7d21ea	-0.003862495
53	0x3ae56b90	0.001750337
54	0x39ed29a0	0.00045235176
55	0xbaa85148	-0.0012841607
56	0xba2b6d60	-0.00065394305
57	0xbb9182be	-0.0044406345
58	0xbb42af86	-0.002970667
59	0x3be33ff4	0.006935114
60	0xbb88162a	-0.004153033
61	0x3bd04058	0.0063553266
62	0xbbd3807b	-0.006454525
63	0xb84cb800	-4.8808753e-05
64	0xbc13028f	-0.008972778
65	0x3c10f8e8	0.008848406
66	0x3af942c8	0.0019017095
67	0x3bee137c	0.0072655063
68	0x3ba8a7d8	0.0051469617
69	0xbaaaae48	-0.001302191
70	0xbbeb8654	-0.007187644
71	0x3ab016a0	0.0013434477
72	0xbbf3c39c	-0.00743909
73	0x396d67c0	0.00022640731
74	0xbc086d37	-0.00832682
75	0x3c06d6bc	0.008229908
76	0xba441620	-0.00074801035
77	0xbc1c568b	-0.009542118
78	0xbb9b0f33	-0.0047320365
79	0x3c18ea76	0.009333244
80	0x3bbee11c	0.005825175
81	0x3be3f564	0.006956743
82	0x3bac04b4	0.005249584
83	0xbc160b5e	-0.009157984
84	0xbc0dd8a1	-0.008657605
85	0xbbd8f576	-0.006621058
86	0x3b4fdc58	0.0031717028
87	0xbbe32867	-0.0069323066
88	0x3bdf3290	0.0068114474
89	0x3bb2cc88	0.005456511
90	0xbc0dd92c	-0.008657735
91	0x39b7e752	0.00035076827
92	0xbac6a31a	-0.0015154809
93	0xb9eb9adc	-0.00044938072
94	0xbba96301	-0.005169273
95	0x3b282ec0	0.002566263
96	0x39fb9bc0	0.00047990493
97	0x3b8b9c62	0.0042605856
98	0xbb9e0cd6	-0.0048233075
99	0xbbb46c39	-0.005506065
100	0xbb035c16	-0.0020043901
101	0xbc0a380b	-0.008436213
102	0x3c2631e8	0.0101437345
103	0xbb6d0f8a	-0.0036172592
104	0x3bc901ec	0.0061342623
105	0xbbfdd633	-0.007746482
106	0x3bb8b90c	0.0056372937
107	0xbbe1f598	-0.006895732
108	0x3b183710	0.002322618
109	0xbb9d0d24	-0.0047928263
110	0xbc09a9c4	-0.008402292
111	0x3a3fc130	0.0007314859
112	0xbbdb4356	-0.0066913767
113	0x3c0400d0	0.008056834
114	0x38711a00	5.7483092e-05
115	0xbbe04f0b	-0.00684536
116	0xbaf65d20	-0.0018796064
117	0x3bc91ac8	0.006137226
118	0xbbd97024	-0.0066356827
119	0xba407160	-0.0007341113
120	0xbb6abe34	-0.0035818936
121	0xbb53f7f6	-0.003234384
122	0xbb95d89c	-0.004572941
123	0x3ba1659c	0.004925443
124	0x3be6a4dc	0.0070386957
125	0xbc1245e5	-0.008927797
126	0xba3eb6b0	-0.00072751474
127	0xbac25708	-0.0014826963
128	0xbbee04f9	-0.0072637764
129	0xbb85459f	-0.0040671374
130	0x3b0dfba0	0.0021664873
131	0x3b95ed9a	0.0045754435
132	0xbbfb429d	-0.007667853
133	0xbc0a2b5c	-0.008433189
134	0x3b0e87f4	0.0021748515
135	0x3b63cb82	0.0034758751
136	0x3b4e1a10	0.003144864
137	0x3b255c20	0.0025231913
138	0x3bae19fa	0.0053131552
139	0xbc0f11be	-0.008732257
140	0x3b998dfa	0.0046861144
141	0x3b91d6dc	0.004450662
142	0xbb6b28ce	-0.0035882476
143	0x3a8f3e30	0.0010928567
144	0xbb3aacd8	-0.002848437
145	0xbbcb6ed1	-0.0062082787
146	0xbbcc143e	-0.006227999
147	0x3b1e0e84	0.0024117539
148	0xbb987713	-0.0046528666
149	0x3be42f9c	0.0069636833
150	0xbbca0010	-0.006164558
151	0x3c064336	0.008194735
152	0xbb6c07ee	-0.0036015469
153	0xbbd9bdbd	-0.006644933
154	0x3bdb9538	0.006701138
155	0x3b65fa90	0.0035091974
156	0x3ad16380	0.0015975088
157	0xbb444c0e	-0.0029952559
158	0x3b324ad8	0.0027205255
159	0x3c1dc600	0.009629726
160	0xbb77fcc4	-0.003783987
161	0x3adc0708	0.0016786763
162	0x3ab36338	0.0013686186
163	0xbb88a44c	-0.0041699763
164	0xbbae6a35	-0.0053227195
165	0x3be850d4	0.0070897136
166	0xbc1aa0da	-0.009437764
167	0x3bb01cda	0.005374533
168	0xbc1129e3	-0.008860084
169	0x3b513e30	0.0031927936
170	0xbabe3d20	-0.0014514066
171	0xbba95fb6	-0.0051688803
172	0x3b470f98	0.0030374285
173	0x3b9ebb7c	0.004844127
174	0x3bf06d70	0.0073372647
175	0x3aff43a0	0.001947511
176	0xbb05ca5c	-0.0020414805
177	0x3b96f548	0.0046068765
178	0x3a6e3e2c	0.0009088244
179	0xbbb78cec	-0.005601516
180	0xba88386f	-0.0010392795
181	0x3c020e4a	0.007937977
182	0xbbe3e17a	-0.006954369
183	0xbb9dfa44	-0.0048210938
184	0x3b8200dc	0.0039673876
185	0xbbac412e	-0.0052567935
186	0x38df3d00	0.00010644831
187	0xba4d1510	-0.0007823268
188	0xba306aa0	-0.00067297556
189	0xbbbb94a5	-0.005724507
190	0x3b8089b2	0.0039226646
191	0xbaf2fb7d	-0.0018538084
192	0xbbecb474	-0.00722366
193	0x3c16fc8b	0.009215484
194	0x3b8c8cba	0.004289237
195	0x3c14709a	0.009060049
196	0xbbd1a4d7	-0.0063978243
197	0xbbf44f9a	-0.0074557783
198	0xbc008414	-0.00784399
199	0xbb8c290c	-0.004277354
200	0x3b210742	0.0024570976
201	0x39211d80	0.00015365146
202	0xb9d143c0	-0.00039914064
203	0x3bf817b0	0.007571183
204	0xbb80d03f	-0.003931075
205	0xbb6a4ce6	-0.0035751401
206	0xbbdca483	-0.0067334785
207	0xbbe28b5a	-0.0069135847
208	0x3ada5df8	0.0016660085
209	0x3b02dd24	0.0019968236
210	0xba0d1180	-0.0005381331
211	0xbba64789	-0.0050744456
212	0xbbd2cb53	-0.0064329295
213	0xbb15538e	-0.0022785398
214	0x3c1cbd7a	0.009566659
215	0x3ba82858	0.0051317625
216	0xbbbbea1b	-0.0057346947
217	0x3be67a0c	0.007033592
218	0xbc129eb8	-0.008948974
219	0x38b91480	8.825306e-05
220	0xbb02eab2	-0.0019976315
221	0xbc02a377	-0.007973543
222	0x3ba0258a	0.0048872875
223	0xbbe3c63c	-0.0069511216
224	0x3ae77d15	0.0017661179
225	0xbbb938d7	-0.005652528
226	0xbbc908af	-0.0061350684
227	0x3bac835f	0.005264684
228	0xb9bfda99	-0.00036593227
229	0x3b63f146	0.0034781261
230	0x3b8a1d2a	0.0042149024
231	0x3c150042	0.0090943
232	0x3ac93fa0	0.0015354045
233	0xb992ee20	-0.00028024707
234	0x3c0111b8	0.00787776
235	0xbb89ac77	-0.0042014676
236	0xbbbb19ee	-0.005709878
237	0xbbf41ec0	-0.0074499547
238	0x3bfa0ecc	0.0076311585
239	0xbb4d1a04	-0.0031296024
240	0xbbdcb156	-0.0067350073
241	0x3ba308ee	0.0049754297
242	0x3c1af748	0.0094583705
243	0x3b9250f0	0.004465215
244	0xbaf77ab0	-0.0018881168
245	0x3bc47e71	0.0059965183
246	0xbb911321	-0.004427329
247	0x393f5200	0.00018245727
248	0xbc193513	-0.009351033
249	0x3c1674ee	0.009183152
250	0x3b8acd62	0.0042359093
251	0x3beb169c	0.007174326
252	0xbb98cbe5	-0.004662978
253	0xbb794382	-0.0038034623
254	0xbafb57c8	-0.0019175941
255	0x3c13e556	0.009026846
