best_model.pth (torch, 60601 bytes, 5 tensors)

features.0.weight f4 [8, 3, 5, 5]
000000 dd 55 b7 bd 36 98 b8 bd 75 b3 d3 3d 37 c7 83 bd
       -0.08951924 -0.09013407 0.10336963 -0.064344816
000010 b7 9c 05 bd b5 39 a3 bd e1 00 96 3d 5b 25 51 3c
       -0.032620158 -0.07969991 0.073243864 0.012765254
000020 09 28 15 3d d1 9c 2f bd 56 1c c7 3c a9 ac ba 3d
       0.036415134 -0.04287416 0.024305504 0.091149636
000030 21 94 3a bd 1d 23 df 3c 7b 6b f2 3c 82 55 95 3d
       -0.045551423 0.027238423 0.029592266 0.072917
000040 a2 c9 fa 3c 4b 2e 95 bb a8 98 72 bc 68 a6 3a 3d
       0.030613724 -0.0045526377 -0.014806904 0.045568854
000050 73 79 82 3d 6d 9a 92 3d e5 51 7f 3d a2 16 27 3c
       0.06370821 0.07158361 0.06233396 0.010198267
000060 a1 60 6b 3d 27 74 cd 3d 1d 2d 8a 3d 08 22 98 bd
       0.0574652 0.1003192 0.06746886 -0.07428366
000070 c4 be c2 3d 2d e9 99 bd 5e fd ee 3c 2c 4b 8c 3c
       0.09509042 -0.07515178 0.02917355 0.017125688
000080 ee 3f 97 3d 82 97 82 bd 8a f1 b8 bd f7 47 35 bd
       0.073852405 -0.06376554 -0.09030445 -0.044258084
000090 d3 90 b1 bd c5 a0 d1 3d 10 e9 ca bd 42 06 c7 3d
       -0.08670201 0.102357425 -0.099077344 0.097179905
0000a0 b7 85 a2 bd 74 43 d6 3d 4d de be 3c 02 9a a6 3d
       -0.0793566 0.104620844 0.02329936 0.081348434
0000b0 62 57 f9 3c fc dd b8 3d a7 e9 de 3d e3 9a 16 bd
       0.030437175 0.09026715 0.108844094 -0.036768805
0000c0 5c 44 ec 3d 49 60 bb 3d 4e 58 99 bd 21 a8 19 bb
       0.11536476 0.09149224 -0.07487546 -0.002344616
0000d0 37 7e b4 bd de 22 4a bd 4e 08 ec 3c 50 30 a4 3d
       -0.08813136 -0.04934966 0.028812554 0.080170274
0000e0 28 94 9a 3d e0 80 ba 3b 2d 5a ad 3d 46 8c 63 3d
       0.0754779 0.0056916326 0.08464465 0.055553697
0000f0 f0 27 75 bd 99 a2 a8 3c da f9 23 bd 53 80 a2 bd
       -0.05985254 0.020585345 -0.0400332 -0.07934632
000100 60 de 06 bd f7 d3 cc 3d d4 27 6b bd a3 3e ed 3d
       -0.032926917 0.100013666 -0.05741103 0.11584213
000110 8c a1 84 3d 9d 60 93 bd cb 21 40 bc ff cc 58 bc
       0.06476125 -0.07196162 -0.011726807 -0.013232469
000120 f7 73 3d 3c 54 e1 ce bd 73 03 44 bd bc 45 37 3c
       0.011563293 -0.10101572 -0.047854852 0.01118606
000130 01 a6 8c bd e1 55 9e bd c9 5a db 3d a7 49 c3 3c
       -0.068676 -0.07731224 0.10710675 0.023838831
000140 12 c4 a5 3b 60 2d 30 bb d6 ba 52 bd 37 fd ed 3c
       0.005058774 -0.0026882514 -0.051447712 0.029051406
000150 5b b9 4c 3d 7a c2 e2 bd 99 a5 e7 bd ac e3 2e bd
       0.049981456 -0.1107225 -0.11310882 -0.042697594
000160 25 b0 ef bc 80 ba ad 3d 0e 6f be 3d 74 59 a1 3d
       -0.029258797 0.08482838 0.09298526 0.0787839
000170 68 30 9e bc 7d 94 c3 3c 72 aa b1 3d ea e2 0f bd
       -0.019310191 0.023874516 0.08675088 -0.03512851
000180 39 12 d0 bc 4c 86 e3 3c 56 eb 77 bc bf 11 a1 3d
       -0.025399314 0.027773999 -0.015131792 0.07864713
000190 b1 e1 15 3d 4a 72 3c bd a9 bd d9 bd 0e 26 73 3d
       0.03659219 -0.046007432 -0.10631878 0.059362464
0001a0 7f e5 0c 3d fe dd af bd 12 07 ea bd de 6a b7 bd
       0.034398552 -0.085872635 -0.1142713 -0.0895593
0001b0 04 84 2f bc 58 29 54 bc d9 41 a5 bd 31 42 75 bd
       -0.010712627 -0.01294931 -0.080692 -0.05987758
0001c0 e6 b2 7a bd 92 8e 0a bd 26 f5 71 3d d0 6f ba bd
       -0.061205767 -0.033827372 0.059071682 -0.09103358
0001d0 49 2d ab 3d 16 8b af bd df cc a4 3d 63 14 8c bd
       0.08358247 -0.085714504 0.080468886 -0.06839826
0001e0 c3 76 67 bd 99 8e a1 bd 4b ed f0 3c b3 39 66 3c
       -0.056509744 -0.078885265 0.029410025 0.0140518425
0001f0 bc 6f 5d 3d 8e 32 28 3d 55 e0 21 bd 74 99 be 3d
       0.054061636 0.041063838 -0.03952058 0.093066126
000200 c6 03 b8 bd 97 ca 9e bd d1 78 d5 bd b2 1b 20 3b
       -0.08985095 -0.07753485 -0.104234345 0.002443057
000210 c3 cf ae ba 85 ef bf 3d ff de 49 ba ff ce f0 bd
       -0.0013337064 0.093718566 -0.00077007705 -0.11758231
000220 cd 62 52 bd e6 d7 2f bc 4d 5d c5 3d 34 70 46 bd
       -0.051363755 -0.010732627 0.09636936 -0.04844685
000230 01 1d b9 3d 12 86 d1 bd c1 e6 35 bc ce 35 92 3c
       0.09038735 -0.1023065 -0.011102379 0.017847922
000240 fe 02 56 3c 1b 20 9b 3d 32 8a cc 3c 3b ec 46 3d
       0.013062237 0.07574483 0.02496824 0.04856513
000250 2d a2 0f bc 86 14 45 bd 88 2d 86 bd d8 cb 00 bc
       -0.008766693 -0.048115276 -0.06551653 -0.0078611
000260 9c 85 cb 3d 34 3d 49 3d 50 9f ae 3d 7a 2a b8 3d
       0.09937593 0.049130633 0.0852648 0.08992477
000270 a7 bb d9 bd e8 d0 2c bc 44 84 ad bd fa e6 9c bd
       -0.10631495 -0.010547854 -0.08472493 -0.07661243
000280 10 61 e8 3d 1c 2a 8c 3d 8a cb db 3d 44 18 ea bd
       0.11346638 0.06843969 0.10732181 -0.114304096
000290 1b ca e4 bd 5b a9 d8 bd 00 e5 93 bd 02 80 d6 3d
       -0.11171361 -0.10579177 -0.07221413 0.10473634
0002a0 78 52 ea bd 9e 02 b5 3d 10 3a 12 3c b7 7f 5e bd
       -0.11441511 0.0883839 0.008924976 -0.054321017
0002b0 28 7e a8 bd 02 ac e0 3d a2 cf a5 bd 5e f7 9b 3d
       -0.082271874 0.10970308 -0.080962434 0.07615541
0002c0 e0 46 85 3b 50 23 ae 3d 48 db ad bd d2 24 dc 3d
       0.004067287 0.08502829 -0.0848909 0.107492104
0002d0 b8 a0 86 bd f0 50 94 3d c6 d2 c2 3d 04 d1 b8 3d
       -0.065736234 0.07242 0.09512858 0.090242416
0002e0 48 14 79 bd 00 5d 97 bd f6 8e a2 3d 88 a0 05 3c
       -0.060810357 -0.07390785 0.07937424 0.008155949
0002f0 a2 92 bb bd 3a fc c8 3d 8c 55 58 bd 9f 60 8b bd
       -0.09158827 0.098137334 -0.05281596 -0.068055384
000300 72 13 a0 bd 34 c5 b1 bd 00 80 8e bd 80 fb b2 bd
       -0.07816209 -0.08680192 -0.06958008 -0.08739376
000310 6a cf af 3d 14 37 d6 3d 57 9a a7 bd 09 93 aa bd
       0.08584483 0.10459724 -0.08183735 -0.08328826
000320 1c 0b b5 bd 12 e4 5f bd b0 e3 1c 3c f8 68 d6 3c
       -0.088400096 -0.054660864 0.009575769 0.0261731
000330 7c 9d e8 bd 09 23 c8 bd 20 2f a8 bd 20 31 86 bd
       -0.11358163 -0.097723074 -0.082121134 -0.065523386
000340 50 c7 55 bc 26 7c 99 bd cc 42 86 3d 12 65 af 3d
       -0.013048008 -0.074943826 0.06555709 0.085641995
000350 fb e7 60 bd ee 8e 26 bd 48 2b 95 3c 31 a7 99 bd
       -0.054908734 -0.040663652 0.018209115 -0.07502592
000360 50 52 af 3b a8 cb 82 3c f7 4c bf bd 42 17 da bd
       0.0053503886 0.015966251 -0.09340852 -0.10648967
000370 e4 cb 3d bd 62 5b 00 bd c0 8e 81 ba d6 11 9e bd
       -0.046337023 -0.03133715 -0.0009884462 -0.07718246
000380 f0 e3 98 bd 29 c4 b2 3d 8a e1 84 bc 30 b2 4f 3d
       -0.07465351 0.08728821 -0.016220827 0.050707042
000390 f2 f9 cd 3d a7 3e 5d 3d bb d6 40 bd 46 38 b0 3c
       0.10057439 0.054014828 -0.047079783 0.021511208
0003a0 1a a6 fa 3c d1 dc 22 3d af 43 57 bb db 10 89 3c
       0.030596782 0.03976137 -0.003284674 0.01673167
0003b0 4f cf 63 bb a9 6b 19 bb c9 d6 56 3d 75 0d 78 3d
       -0.0034761017 -0.0023410118 0.05245093 0.06055971
0003c0 9e a6 c4 3c 75 c4 a9 bc 10 46 7a 3d 3c 88 8f 3b
       0.02400523 -0.02072356 0.061101973 0.004380254
0003d0 dd 05 99 bd 5a 59 c9 bd 76 81 90 3c d8 52 f7 3c
       -0.074718215 -0.098314956 0.017639857 0.03019087
0003e0 83 1c b9 3d c1 a1 f7 3a bb b1 9b 3d 55 c6 c2 3d
       0.09038641 0.0018892811 0.07602259 0.09510485
0003f0 a2 c9 81 3c 64 dd 74 3c ae 5b 97 3c eb 99 59 bc
       0.015843216 0.014945362 0.018476333 -0.013281326

features.0.bias f4 [8]
000000 61 58 d6 bd 9b fa b5 3d c0 05 5b bb dd 1b 18 bd
       -0.10466076 0.0888569 -0.0033420175 -0.037135947
000010 68 3b b9 3d a1 8d 92 3d 81 4f df 3d 8f c3 21 3d
       0.09044534 0.0715592 0.10903836 0.03949314

features.2.weight f4 [16, 8, 5, 5]
000000 bb f5 6b 3d 55 6e 22 3b ea 00 93 3d 8e c2 c6 bc
       0.057607394 0.0024785001 0.07177909 -0.024262693
000010 59 d6 67 bd 7c 7f a6 3c a0 de 56 3c 90 13 67 bd
       -0.056600902 0.020324461 0.013114601 -0.05641514
000020 c3 91 b4 3b 42 c5 88 bc 53 40 12 bd 3d 22 9a 3c
       0.00551054 -0.016695622 -0.035705876 0.018815154
000030 31 f1 15 bd 73 e1 18 bd c1 94 73 bd dc 3f 21 3d
       -0.03660697 -0.03732438 -0.059468035 0.03936754
000040 0a 35 fa bc d9 4d 05 bd e1 9b 2d 3d 2e e0 5e 3d
       -0.03054287 -0.032544944 0.042384986 0.054413013
000050 03 bb d6 3c ab 12 ac bc db 6a 1c bd 85 27 01 bd
       0.026212221 -0.021004995 -0.038187843 -0.03153183
000060 3d ed 6e bd 5c 3d e6 bc cb ee 85 3a 7c ba 27 bd
       -0.058331717 -0.02810543 0.001021826 -0.04094933
000070 e3 bd 11 bd c1 52 61 3c ca fb 51 bd e9 a4 d2 3b
       -0.03558148 0.01375264 -0.051265515 0.00642835
000080 da 9b 25 3d 66 aa 99 bb af 27 84 bd 14 b8 92 3d
       0.040431835 -0.0046895025 -0.064528815 0.07164016
000090 d9 94 a1 bc 9f 0b 86 bd f3 b6 87 bd 6a 1e 28 3c
       -0.019724296 -0.06545185 -0.06626692 0.0102611575
0000a0 b2 2a fb 3c a5 65 9b 3a 1e bd 53 3d 12 d7 84 3b
       0.030660007 0.0011855854 0.051694028 0.0040539587
0000b0 90 e9 c6 3b 54 b9 da bc 80 50 43 3d c8 18 20 3d
       0.0060703233 -0.0266997 0.047684193 0.039086133
0000c0 e7 30 7e bd a1 85 d8 3b fa 3d 06 3d b4 25 0c 3d
       -0.062058356 0.0066077267 0.03277395 0.034215644
0000d0 99 94 17 bd 98 16 1d 3d d6 53 c7 bc 2c bb 9d bc
       -0.03700695 0.038351625 -0.024331968 -0.01925429
0000e0 55 c9 88 bd 20 b2 01 bc 8c c6 a4 3c 93 57 64 bd
       -0.06679026 -0.007916003 0.020114206 -0.05574758
0000f0 01 d2 77 bd 8b 0d 8c 3d 2a c5 11 3d 6a 67 39 3d
       -0.06050301 0.068385206 0.03558842 0.04526464
000100 bc ab 52 3d 28 f0 20 3d d0 0a c2 3c b2 a5 7d 3d
       0.05143331 0.03929153 0.023686796 0.061925597
000110 83 85 76 bd e7 b8 86 3d dc 3b dc 3c 19 fc 88 3d
       -0.06018592 0.06578236 0.026884012 0.06688709
000120 5b 85 90 3d 21 e1 82 3d 20 2a a1 3b 21 26 41 3c
       0.070566855 0.06390596 0.004918352 0.011788876
000130 59 d3 12 bd f0 85 81 3d e9 cf f2 bc 80 66 3e bb
       -0.035846088 0.06324375 -0.029640155 -0.0029052794
000140 0d 35 42 bd 92 5a dc 3b 44 6b 46 3d cd 67 41 3d
       -0.047413874 0.006724664 0.04844214 0.047218133
000150 9d c8 4a bd 98 de 53 3d bc 1e e0 3c e0 a1 2c bd
       -0.049507726 0.051725954 0.027358405 -0.042146564
000160 0e 3c 91 3c 25 a2 1e bd 24 6a d6 3c 02 18 0b 3d
       0.017728832 -0.03872885 0.026173659 0.033958443
000170 03 18 15 bd 49 f1 32 bc 1b 6d 43 bd 0a 1d 21 3d
       -0.036399852 -0.010921785 -0.047711473 0.039334334
000180 b2 30 f6 bc a3 69 1d 3d b9 74 59 3c 14 69 4a 3d
       -0.030052517 0.03843082 0.013272458 0.049416617
000190 30 f5 cc 3c c0 39 13 bd 64 8c 79 bd c8 4b 1d 3d
       0.025019258 -0.035943747 -0.060924903 0.03840235
0001a0 58 44 86 3c a6 c7 d1 3c 33 1d c9 bc eb 24 8d bd
       0.01639001 0.025607895 -0.024550056 -0.06891807
0001b0 e7 8e 41 bd 1c fb 01 bd 98 4d fb 3c 58 2f 4e bd
       -0.047255423 -0.031733617 0.030676648 -0.05033812
0001c0 b9 8c 7d bd 01 5e 6a bd fc ab d3 bc 57 39 66 3d
       -0.06190178 -0.057218555 -0.025838844 0.056207027
0001d0 9b 12 57 bd e4 41 af bc 87 7e 07 bd ae a4 62 bd
       -0.052507978 -0.021393724 -0.03307965 -0.055332832
0001e0 cb 83 f8 3c 2b 7a 6a 3d 7b 00 21 bc be 38 8a 3c
       0.030336281 0.057245415 -0.009826775 0.01687276
0001f0 0d e8 fc bc 71 1a 6a 3d 75 16 76 bd 10 ef 38 bd
       -0.03087237 0.057154123 -0.06008001 -0.045149863
000200 a4 1e c4 3c 8e 79 70 bc 01 1d 71 3c c0 a3 b5 3c
       0.023940392 -0.014677418 0.014716388 0.022172809
000210 ce 55 7b 3d 37 c8 27 3d 5e 0a d8 3c 6f c8 2c bd
       0.061361127 0.040962424 0.026372131 -0.042183336
000220 0c 9a 4c 3d dc cb 03 bd bc 66 16 3c 7d 94 be bc
       0.049951598 -0.032176837 0.009179767 -0.023264164
000230 55 17 67 3d 7a 31 8f 3c ef 23 15 bd 4b 60 9f bd
       0.056418736 0.017479647 -0.036411222 -0.07782038
000240 f8 14 78 bd 7d 0a 06 bd 54 bf 87 bd c6 79 5c bd
       -0.060566872 -0.032724846 -0.0662829 -0.05382707
000250 6e 56 e6 3b 97 84 64 bc 52 43 7b 3d 2e 68 46 bd
       0.007029346 -0.0139476275 0.0613435 -0.048439197
000260 52 e7 4c 3d 70 dd a6 3c 78 9f 71 bd 5e 5b 67 3d
       0.05002529 0.020369262 -0.058989972 0.05648362
000270 b5 14 2c bb 14 b4 53 3d 9b 8e ea 3c f0 9a 3f 3c
       -0.002625746 0.051685408 0.028632453 0.011694655
000280 90 c7 24 3d a4 a3 26 bd 79 07 13 bd 23 30 62 bd
       0.04022938 -0.040683404 -0.0358958 -0.055221688
000290 ea ef 21 3d 5c 59 6c bc 1d 71 5b bc 23 68 80 bd
       0.03953544 -0.014425602 -0.0133936675 -0.062698625
0002a0 3e c6 8b 3c b4 86 59 bd b8 a5 86 3d 51 d2 8f bd
       0.017062303 -0.05310698 0.06574577 -0.070225365
0002b0 83 d2 2c bd 6c 69 0f 3d 4a 44 88 3d de 58 2c 3c
       -0.042192947 0.035012648 0.0665365 0.010519234
0002c0 00 7e 95 3c c8 06 4e 3c 4a f6 35 3b f8 19 76 bd
       0.018248558 0.012574859 0.0027765208 -0.06008336
0002d0 41 55 49 3d 43 32 d2 3c 98 eb 04 bd 60 1a d9 3c
       0.04915357 0.025658732 -0.032451242 0.026501834
0002e0 d0 62 01 bd 72 71 6e bd 53 0d 54 3d 33 d1 32 3d
       -0.031588376 -0.05821366 0.05177052 0.04365654
0002f0 10 33 4f 3d 1a ec 28 3d 3f d3 e8 3c 2c c2 fd 3c
       0.050585806 0.04124079 0.028421042 0.030976377
000300 ab 9a 90 3c 0f a2 58 bd 51 0e 6a bc ff 07 ba bc
       0.017651876 -0.052888926 -0.01428564 -0.022708891
000310 d0 60 54 bc 30 ed 3b 3c 44 2c 64 bb 1c 98 32 bd
       -0.012962535 0.011470124 -0.0034816423 -0.043602094
000320 ae 20 9b 39 ec af f5 bc 19 0e 2c bd 0b 84 21 bd
       0.00029588252 -0.029991113 -0.042005632 -0.039432567
000330 2a bd 87 bd 85 44 93 bc f5 5f fa 3c ba 39 15 3d
       -0.06627877 -0.017977009 0.030563334 0.036432005
000340 8a 69 4a bd 8a c9 47 bc 4c 40 7e 3d e0 39 b0 bc
       -0.049417056 -0.012194047 0.062073037 -0.021511972
000350 a6 02 1f bb 7b 94 50 bc 27 b2 81 bd 3c 29 63 bd
       -0.0024263053 -0.012730713 -0.06332808 -0.055459246
000360 e7 98 34 bd f6 1d 71 3d 98 e2 60 3d a3 6b 1a bd
       -0.04409113 0.058866464 0.054903597 -0.037700307
000370 58 c6 31 3d f0 71 5f bd b6 18 7e 39 39 7f 6e 3c
       0.043402046 -0.05455202 0.00024232533 0.014556699
000380 24 79 67 bd 52 3d 25 3d 86 38 26 3d f2 40 88 bd
       -0.056512013 0.040341683 0.04058125 -0.06653012
000390 85 61 4f 3c 01 83 d6 bc af 92 9f 3c ce 10 74 bb
       0.012657528 -0.026185514 0.019479124 -0.0037241462
0003a0 69 5d 19 3d 54 d2 83 3c 81 0a e1 3c e5 dd 04 3d
       0.0374426 0.016091503 0.027470829 0.032438178
0003b0 4a 79 fb bc dd 63 40 bc 5e a3 86 bc 43 40 45 bd
       -0.030697484 -0.011742559 -0.016435321 -0.048156988
0003c0 08 fc e6 3b 0d 57 66 3d 2e 9b 1a 3d 6b b7 63 bd
       0.0070490874 0.05623536 0.037745647 -0.055594843
0003d0 6b e2 fe 3a b8 68 26 3c 3b 04 50 3d 99 aa 63 3c
       0.001944614 0.010156803 0.050785284 0.013895654
0003e0 82 e8 81 bd f6 50 1b 3d 2b b9 8e bd 1a af 4a 3d
       -0.063431755 0.037919007 -0.06968912 0.049483396
0003f0 18 35 96 3c 7b f4 8b 3d 60 15 80 bd 78 18 0c 3c
       0.018335864 0.0683374 -0.06254077 0.008550756

features.2.bias f4 [16]
000000 63 09 d8 3c 86 64 68 bd 31 08 70 38 18 00 ed 3b
       0.026371663 -0.05673649 5.7228088e-05 0.007232677
000010 d6 08 47 3d 21 76 58 3d b8 37 9c 3c 10 d4 6f bd
       0.04859241 0.05284703 0.019069538 -0.058551848
000020 db 09 61 bd d7 4d 5d bd e7 fa 83 3d 42 c6 47 3d
       -0.05494104 -0.054029312 0.0644434 0.048773058
000030 d1 36 79 bd be ff c3 bc 5e 0f 9e bc 96 31 56 3d
       -0.060843293 -0.023925658 -0.019294437 0.052293383

regressor.1.weight f4 [1, 10528]
000000 01 22 5e 3a 64 30 1e bb c7 fe c2 3a 1c 4f 3e bb
       0.0008473695 -0.002413773 0.0014876955 -0.0029038852
000010 03 22 eb 3a d2 40 01 bb 92 71 28 bb 46 7f cc 3a
       0.0017939213 -0.0019722474 -0.0025702459 0.0015601895
000020 23 34 c2 b9 e9 d2 ea 3a 75 18 ff 39 31 59 b6 ba
       -0.00037041408 0.0017915639 0.00048655612 -0.0013912079
000030 a6 c8 18 3b 5c 48 05 bb 4f aa 92 3b bd dd cc 38
       0.0023312955 -0.002033732 0.004475869 9.76878e-05
000040 47 39 f0 38 65 6c 2d 3a 59 fe a1 3a 1b 3b a3 39
       0.000114547605 0.00066155783 0.0012359127 0.0003113382
000050 28 10 30 bb 0c d3 34 3b df d6 2e 3a e1 6b c2 ba
       -0.0026865099 0.0027591614 0.00066695915 -0.0014833176
000060 be bb c0 ba 62 a5 22 bb 34 aa 23 3a c9 41 70 3a
       -0.0014704389 -0.0024817814 0.0006243319 0.0009165076
000070 34 48 29 3b 5e 74 77 ba 00 67 79 38 2a 44 0a 3b
       0.002583039 -0.00094396423 5.9462152e-05 0.0021097758
000080 db d6 6a bb ae 05 a5 3b 4b 2f 99 bb 49 67 ed ba
       -0.003583363 0.0050360775 -0.004674827 -0.0018112446
000090 65 4a f5 3a a4 62 6c bb 8a 4d 46 ba 86 7b 80 ba
       0.0018714188 -0.0036069537 -0.0007564655 -0.0009802438
0000a0 b1 52 27 3b d4 7d b3 b6 07 d2 3d 3b 0e 4b 22 b9
       0.0025531466 -5.349264e-06 0.0028964297 -0.00015477484
0000b0 40 7d 2e ba 6f bc c6 3a fb d8 c7 b9 c3 a3 7a 38
       -0.0006656237 0.0015162359 -0.000381179 5.975716e-05
0000c0 0b ab 1e bb 38 83 90 3a 25 62 2d bb b1 30 14 3b
       -0.0024210836 0.0011025434 -0.0026456204 0.002261203
0000d0 49 5a 31 3b b7 02 20 ba e1 b8 b1 b9 47 37 31 bb
       0.002706187 -0.000610392 -0.00033897816 -0.0027041005
0000e0 76 53 ae 3a 26 8e 0a bb 03 0a 35 3b cb a9 2c 3a
       0.001330002 -0.0021141856 0.0027624376 0.00065865804
0000f0 9f 1b 32 3a f8 0d b7 3a 7c 3a 8d 3a 80 70 01 3b
       0.0006794277 0.0013965955 0.0010774876 0.0019750893
000100 ad bc 90 ba 19 4f e4 3a 40 38 06 3a 45 24 49 3b
       -0.0011042558 0.0017418592 0.0005120076 0.0030691784
000110 c0 7e 2a 3b fc c0 42 3b 14 3e d8 ba b7 2a 94 bb
       0.002601549 0.0029717078 -0.0016497993 -0.0045216936
000120 9f df 86 3b 99 1e 32 bb 80 1b 56 bb 3b 4c f5 39
       0.004116013 -0.0027178882 -0.00326702 0.00046786838
000130 7b bd f8 ba 7f 06 08 ba 2e be 4c b9 7a 6e 74 bb
       -0.0018977368 -0.0005188956 -0.00019525804 -0.0037297294
000140 c6 99 c0 38 0c 1a 3e 3b ca bd 9c 39 64 75 ed 3a
       9.183916e-05 0.0029007224 0.00029896043 0.001811665
000150 0d 7d 10 3b 21 30 e6 ba 42 25 ee 3a cc 88 3f ba
       0.0022047192 -0.0017561951 0.0018169063 -0.0007306456
000160 37 ac 6f b9 e5 61 49 3a c5 1c a6 39 8e 99 eb ba
       -0.00022856971 0.0007682129 0.00031683422 -0.001797484
000170 dd 99 72 3b 76 94 11 bb 72 31 b7 3a b5 f8 cb ba
       0.003701798 -0.0022213734 0.0013976528 -0.0015561791
000180 d5 14 50 3b 43 8e 08 bb cd 63 47 3a 7a 90 f9 ba
       0.0031750698 -0.0020836748 0.0007606119 -0.001904025
000190 80 ae 18 3a bc b2 b3 39 dd 83 34 bb 43 97 12 39
       0.00058243424 0.00034274708 -0.0027544417 0.00013979994
0001a0 a4 e6 28 ba b4 ba 92 3a dc 16 29 3b 91 1a 4f bb
       -0.00064430595 0.0011194558 0.0025800979 -0.0031601528
0001b0 82 c0 37 bb 47 72 c5 3b 01 0c 51 3b 80 76 c2 3a
       -0.0028038328 0.006025586 0.0031898024 0.0014836341
0001c0 df d2 04 3c 4a 5c 96 3a 47 e8 9f 39 f4 49 fc 3b
       0.008106916 0.0011471596 0.00030499903 0.0076992456
0001d0 43 03 b4 3a 21 4f a1 3b b6 16 0a bb 06 2b e5 3b
       0.0013733882 0.004922763 -0.0021070666 0.006993654
0001e0 09 09 40 b9 0f df 0d bb 9c 0c b0 ba 86 0d 75 bb
       -0.00018313913 -0.0021647846 -0.0013431492 -0.0037392094
0001f0 01 85 b3 3a 78 c6 32 39 8e 25 05 3b 4b 10 0e bb
       0.0013696254 0.00017049338 0.0020316574 -0.0021677192
000200 52 31 a3 39 5e 31 5d ba ad f8 26 bb b1 9f 9b 3a
       0.0003112653 -0.0008437837 -0.0025477812 0.0011873153
000210 3f c7 6b bb da 1e d2 ba 2d c3 2e 3a fe 55 ec ba
       -0.0035976914 -0.0016030923 0.00066666567 -0.0018030999
000220 db 13 90 3b 73 fb 04 bb 74 90 26 bb 7d 55 09 38
       0.004396898 -0.0020291477 -0.002541569 3.2742963e-05
000230 d2 82 ea ba 14 12 fb 39 d8 30 1e 3b ee 95 ee ba
       -0.0017891771 0.0004788792 0.0024138 -0.0018202642
000240 70 1a c3 39 af 75 f8 39 55 1d e7 39 cc 91 d7 b7
       0.00037212996 0.00047389927 0.00044081607 -2.569789e-05
000250 4f 18 a0 b9 32 41 40 bb ac b7 fb 39 36 f3 92 3a
       -0.0003053569 -0.0029335734 0.00048011297 0.0011211399
000260 94 79 cb ba 92 43 85 3b 99 6d 09 3b 3f 22 48 bb
       -0.0015523904 0.004066893 0.0020969866 -0.003053799
000270 5f 15 45 ba 91 bc 00 3b a6 00 e6 b9 ae f4 25 3a
       -0.0007518138 0.0019643644 -0.00043869502 0.00063307106
000280 42 5d 1a ba b5 50 80 3b 97 d1 cc b9 5b 74 1f 3b
       -0.000588853 0.003915871 -0.0003906607 0.0024330828
000290 9b 40 28 bb bc a9 b2 bb d1 d3 36 bb 6e 22 ba bb
       -0.0025673273 -0.005452363 -0.0027897249 -0.005680374
0002a0 61 10 e9 bb a1 b7 79 bb eb 8b 9b ba 7b d0 86 bb
       -0.007112548 -0.0038103836 -0.001186726 -0.0041142083
0002b0 58 4d e4 39 7b ba 2c bc bd 76 09 3a da e1 c1 bb
       0.00043545174 -0.010542507 0.00052438286 -0.005916816
0002c0 8d d3 46 ba e1 34 d8 bb 61 f9 ac bb 8d 8b 95 3a
       -0.0007584624 -0.0065981005 -0.0052787517 0.0011409387
0002d0 8e 33 95 3a 18 5f 28 b9 dd 2e d1 3a 30 72 7d b5
       0.0011383162 -0.00016057154 0.0015959401 -9.441601e-07
0002e0 75 39 0c 3b 4c 48 68 ba ba 11 27 3a df 42 b3 ba
       0.0021396552 -0.0008860871 0.0006373186 -0.0013676545
0002f0 36 b5 b6 ba bb 9c 8d ba 54 25 9c b9 59 8e 3b ba
       -0.0013939503 -0.0010804156 -0.0002978245 -0.00071546953
000300 a2 fc cd b9 76 bc 01 ba aa b7 da b9 9a 45 94 b9
       -0.00039288873 -0.00049490423 -0.0004171704 -0.00028280617
000310 1f f3 b0 37 64 b9 08 bb 83 5f 65 ba bf 62 0e bb
       2.1094047e-05 -0.0020862455 -0.0008749889 -0.0021726338
000320 8f 5c dd ba 01 e7 6a 3b 44 3b 90 ba 9e 21 e1 3b
       -0.0016888547 0.0035843255 -0.0011003991 0.0068704626
000330 fb d1 fc b9 f8 7d 5f b9 7c 34 d1 3b 30 19 01 3b
       -0.00048221633 -0.00021313864 0.0063844305 0.001969885
000340 4c 5a 9c 3a c9 3c 9e 3b c5 62 55 3b ad 66 dc b9
       0.0011928766 0.0048290235 0.0032560092 -0.0004203817
000350 9e cd 19 3a 4a c6 47 3b c1 8b 07 bc f4 c6 17 bb
       0.0005867126 0.003048318 -0.008273066 -0.0023159357
000360 c0 57 dd bb 14 54 fd bb 2d b7 25 bc d9 64 c2 3a
       -0.0067548454 -0.00773097 -0.010114473 0.001483108
000370 88 60 34 3a 0a 7a 67 bb dd 5c 84 3b a2 42 c5 bb
       0.00068808394 -0.0035320544 0.0040393905 -0.006019906
000380 87 ef 87 3a 6a 8a 93 3a 3a fa c2 3a 31 f1 20 bb
       0.0010371067 0.001125646 0.0014875599 -0.0024557824
000390 5a c3 7f bb 47 d9 87 3b 52 49 f7 bb 47 70 16 3b
       -0.003902635 0.0041457745 -0.0075465823 0.0022955106
0003a0 d4 40 b2 bb f0 97 13 3a dd 7b e4 ba 86 13 a1 ba
       -0.005439857 0.00056302454 -0.0017431934 -0.0012289144
0003b0 e7 4d 29 bb 04 5b 11 bb 5a f1 17 3b ae 97 a7 bb
       -0.0025833787 -0.0022179494 0.0023184628 -0.005114517
0003c0 bf 7f 29 ba 1f b0 be ba a9 30 4e bb fd a2 67 ba
       -0.0006465874 -0.0014548338 -0.003146211 -0.0008836238
0003d0 11 af 29 bb ca 00 31 ba 3a 9a 84 bb b4 f9 ea b7
       -0.0025891701 -0.0006752132 -0.0040467056 -2.801125e-05
0003e0 24 d8 e5 bb 10 2e 72 3b aa 0a bd b9 b6 31 a6 3b
       -0.0070142914 0.0036953725 -0.00036056835 0.005071844
0003f0 cd 8e 3d bb 8d eb 80 3b 25 ad 78 b9 11 88 51 3b
       -0.0028924227 0.00393433 -0.00023715624 0.003197197
