running_dataset/best_model.pth (torch, 60262 bytes, 5 tensors)

features.0.weight f4 [8, 3, 5, 5]
000000 6c 3f 8e bd 13 39 2b 3d 39 3b 6d 3d ab c1 2b bd
       -0.069456905 0.041802477 0.057917807 -0.041932743
000010 a3 d9 d8 bd ee 0d 37 3d 71 8f c2 3d ef 39 b7 3d
       -0.10588386 0.04469102 0.095000155 0.08946597
000020 3f 49 39 3d 34 1a c1 3d aa 7e 55 3b 97 1a 66 bd
       0.04523587 0.09428826 0.0032576718 -0.0561777
000030 9e 3f 3e bd 31 42 17 bc d7 b1 83 39 ec f6 8f bd
       -0.04644739 -0.00923209 0.00025118768 -0.070295185
000040 74 10 e9 bd f8 60 3f 3d 07 d7 81 bd c9 10 47 bd
       -0.11380091 0.046723336 -0.06339841 -0.048599992
000050 c3 fe 9c 3d c4 12 fb 3c 8b fb a7 3b c3 f7 5c bd
       0.076657794 0.030648597 0.005126422 -0.05394722
000060 25 08 af 3d f5 00 2f 3c 56 83 8c bc 66 ab f5 bd
       0.08546475 0.0106813805 -0.01715247 -0.11995582
000070 fe da 7c 3d c6 dd 6f bd 6c b2 c9 3d c4 19 c1 bd
       0.061732285 -0.05856111 0.098484844 -0.094287425
000080 03 a8 a4 3c b5 3b d1 3d 75 0c 80 3c 14 d6 d0 3d
       0.020099645 0.10216466 0.01563094 0.10197082
000090 41 ff 04 bd c5 14 b7 3b 7a 5a bf bd 3e 09 07 3d
       -0.03246999 0.0055871927 -0.09343429 0.0329678
0000a0 01 d4 1a bc 2b 2d 70 bc 76 bd e6 3b a2 6a 55 bd
       -0.00944996 -0.014659206 0.0070416285 -0.052103646
0000b0 e5 ed ba 3d 83 09 3a bc 65 ed cd 3d 08 05 da 3d
       0.09127406 -0.011354807 0.10055045 0.10645491
0000c0 12 2d bb 3d 40 d0 19 bd 69 34 ee bc 55 5c 93 bb
       0.09139456 -0.03755212 -0.029077725 -0.004497091
0000d0 cc 2b 96 bd 47 fa 93 3d 17 62 de bd 3b 19 7f 3c
       -0.07332572 0.07225471 -0.10858553 0.01556998
0000e0 e5 4c 30 3d 3d 39 94 3d 62 16 3b 3c 31 77 93 bd
       0.043042082 0.0723748 0.011418911 -0.07200468
0000f0 5d 45 c2 3d aa a7 a4 bc f0 f3 3a 3c f5 59 c0 bd
       0.09485886 -0.02009948 0.011410698 -0.09392158
000100 f5 7a 44 bd b9 45 6e bd 67 0f 66 bd f3 d6 d5 bd
       -0.047968823 -0.05817196 -0.056167033 -0.10441389
000110 6f 56 a4 bd cc 47 b1 bd 49 72 85 3d 4f 2a a3 bb
       -0.080242984 -0.08656272 0.06515939 -0.004979409
000120 03 d5 64 bd ce cf dd bd 62 50 b8 bd f0 9a ad bd
       -0.055867206 -0.10830651 -0.08999707 -0.084768176
000130 8d 60 94 3d 77 a7 77 3d 7e be 81 bd cf ab 89 bc
       0.07244978 0.06046244 -0.063351616 -0.016805558
000140 6b 40 b2 bd 25 9a 27 3d 4e 37 26 3d 9b ee 71 3d
       -0.08703693 0.040918488 0.040580086 0.059065443
000150 4a 09 b1 3d 63 60 71 3d b8 b7 67 bd 7a 70 1c bc
       0.0864435 0.058929812 -0.056571692 -0.009548301
000160 4f f1 87 bd 33 ff d6 bc d4 8f 20 3d 27 6f ee bd
       -0.06637823 -0.026244735 0.039199665 -0.116422944
000170 2c 9f cf bc a8 2c 8f bd 06 7e c7 bd 96 f9 a9 bd
       -0.025344454 -0.069909394 -0.09740834 -0.08299558
000180 db 05 b1 bd 94 cf 86 bd a8 a0 af 3d 31 b5 38 bc
       -0.08643695 -0.06582561 0.085755646 -0.011273668
000190 f4 07 b4 bd 9c 11 ac bc f2 be 90 3c e5 9f e0 3c
       -0.087905794 -0.02100449 0.017669175 0.027419994
0001a0 92 cf 9c bd 7c d4 a1 3b 30 f6 ac bd a7 bd 2f bc
       -0.076567784 0.00493866 -0.08445394 -0.010726369
0001b0 f8 ce 85 bc b5 c7 e5 3c 66 fe e7 bc 4f 4f e0 bd
       -0.016334042 0.02804933 -0.028319549 -0.10952627
0001c0 4a 9b 39 3c 91 4e 4d 3d 78 cf b3 3c be 92 cd 3d
       0.011328528 0.050123755 0.021949515 0.100377545
0001d0 72 d5 82 3d fe 0c 75 bd cf d0 fd ba 67 03 86 bb
       0.06388368 -0.059826843 -0.0019364598 -0.004089761
0001e0 1d 81 2d bc 6c a9 57 3d 89 be e2 bd e7 bf a7 3c
       -0.010589865 0.052651808 -0.11071498 0.020477248
0001f0 98 52 e9 bd 7e af 33 bd a5 7f b3 3d 53 fb 90 3d
       -0.11392707 -0.043868534 0.08764581 0.07079186
000200 94 6b 8e 3c 99 86 65 bc f6 cd 99 3d d4 d4 b2 3d
       0.017385282 -0.014009141 0.07509987 0.08732
000210 1c 24 3a bc 7c b9 4c bd 5e 0e ca bd 29 f3 6c 3c
       -0.011361148 -0.04998158 -0.098660216 0.014462271
000220 3c e2 b0 3d 1a 85 45 bd f9 54 f7 bd 12 7d 3d 3d
       0.08636901 -0.04822264 -0.12076754 0.046261854
000230 42 a4 a9 bc 2e 9a e7 bc 12 8f e8 bb 91 ec cf 3d
       -0.020708207 -0.02827176 -0.0070971334 0.10152543
000240 b6 cc 18 bd 61 00 5b bc 1e b6 47 3d 88 a7 6f 3d
       -0.037304603 -0.01336679 0.048757665 0.05850938
000250 82 bd 3c bd 4e be b5 bc b4 4c 43 3d 26 06 0d bd
       -0.046079166 -0.02218547 0.04768057 -0.03442969
000260 ed 18 7d 3c 6c 34 13 bd 1f 52 a2 bd e9 05 bd bd
       0.015447837 -0.035938665 -0.079258196 -0.09229643
000270 e5 e5 97 bd 27 04 94 3c cb 60 5b 3d dd 2d dc bd
       -0.07416896 0.018068386 0.053559106 -0.10750935
000280 15 1f b4 3c 9e 72 0e 3d f0 36 89 bc 40 59 c0 bc
       0.021987477 0.034777276 -0.016749829 -0.023480058
000290 53 4f 9d bd 3c e3 ed bc 3a 3d e3 bd f9 84 e6 bd
       -0.076811455 -0.029039018 -0.110956624 -0.11255831
0002a0 97 84 e6 3a 3a 89 3c bd 0b 6b df 3d 91 ca 22 bc
       0.0017587122 -0.046029307 0.10909089 -0.009935991
0002b0 09 db 48 3b 30 3f e7 bd d8 6f 02 bc f5 f7 85 bd
       0.0030648133 -0.11291349 -0.007961236 -0.06541435
0002c0 54 44 c2 3c cc 27 da 3d 30 13 e1 3d 72 dc 42 bd
       0.023714222 0.10652122 0.10989988 -0.047573514
0002d0 a7 73 22 3d dc 96 be bd 5f 78 2a 3d 47 45 9b bc
       0.039661076 -0.09306118 0.0416187 -0.018953932
0002e0 2a bd d2 bd dc dc 34 3d 84 9d 1b bd 36 c1 a6 bd
       -0.102899864 0.04415594 -0.037992015 -0.08142321
0002f0 69 da 5d 3c ad 78 16 3d 50 43 35 bc bf 91 b1 bc
       0.013540843 0.03673618 -0.011063412 -0.021675942
000300 3d 93 b7 bd da d9 1e 3c c1 fe 25 bc c2 7c c0 3d
       -0.0896363 0.009695495 -0.010131539 0.09398796
000310 1f 44 42 bd fa 1c 96 bb f6 d0 c8 3d b2 47 b3 3d
       -0.047428247 -0.004581091 0.09805481 0.08753909
000320 80 87 9a 3d 66 9f f0 bd 9c 86 83 bd 45 c7 68 3d
       0.07545376 -0.11749153 -0.06422159 0.056830663
000330 53 04 c8 bd 23 33 ac 3d 5f ca c0 3d 1e c6 cd bc
       -0.0976645 0.08408191 0.09413599 -0.025118884
000340 b8 99 06 3d ca 38 cd bc d1 e5 db 3d 96 99 39 bd
       0.03286144 -0.025051493 0.107371934 -0.045312487
000350 59 ed ac bd e0 e1 a8 3c 6c bd c8 3d 1c ea 10 3c
       -0.08443708 0.020615518 0.09801754 0.0088448785
000360 9a f3 88 3c 2f 87 af 3d 41 36 7b bd ef 71 f0 bd
       0.01671772 0.08570706 -0.061331037 -0.11740481
000370 15 ba 65 3c da 25 2c bd 4e 05 88 3c 5b d4 a9 bd
       0.014021416 -0.042028286 0.016604092 -0.08292457
000380 36 66 59 bd bb fd bf 3d fb 91 fd 3c a1 98 99 3d
       -0.05307599 0.09374567 0.030953398 0.07499815
000390 88 05 b1 bd 30 ef 81 bd 7c 37 94 3b 12 97 78 bd
       -0.08643633 -0.063444495 0.004523216 -0.060690947
0003a0 2a 76 ce bd 40 92 97 3d 2e fd de bd 13 9d 2c 3c
       -0.10081132 0.07400942 -0.10888134 0.010535496
0003b0 26 ae df 3d 70 5f 94 3c ad 36 cf bd f7 06 c7 3d
       0.10921888 0.018111914 -0.101178505 0.09718125
0003c0 e7 c5 8e bd 9d 43 ce bd 0f cd 3c bd 42 a8 b3 bd
       -0.069713406 -0.1007149 -0.046093997 -0.08772327
0003d0 dc 8f bc 3d 22 fd 49 3d 60 96 93 3b a8 ef f0 bc
       0.092071265 0.049313672 0.00450401 -0.029411152
0003e0 58 0d ab bd 60 f1 b3 3d c0 6b 55 3d 81 51 1d bd
       -0.083521545 0.08786273 0.05210471 -0.038407806
0003f0 12 07 9d 3d ae c4 20 3d fa f4 3d 3d b2 2a 8a 3d
       0.07667364 0.03925007 0.046376206 0.06746425

features.0.bias f4 [8]
000000 f5 b4 d4 3c a1 50 da 3d ea 26 31 bd 76 b8 bb bd
       0.025965193 0.1065991 -0.043250002 -0.091660425
000010 15 19 bb 3c 09 2a 27 3d ae 58 77 bd 9a c9 2f 3d
       0.022839108 0.040811572 -0.060387306 0.04291687

features.2.weight f4 [16, 8, 5, 5]
000000 92 ec 19 bd 43 fe d4 bc c2 e5 93 3b 60 eb df bb
       -0.037579127 -0.026000148 0.0045134732 -0.006833479
000010 df fb 44 3d 23 89 42 bd e0 8c e2 bb 08 c0 71 3d
       0.048091765 -0.047494065 -0.0069137663 0.059021026
000020 20 68 73 3d 78 e5 38 bd 5c 5c 42 3d b1 4f d7 bc
       0.059425473 -0.045140713 0.047451362 -0.026283117
000030 bc 0f 01 bc e1 b3 f4 3b 95 fd 60 3c ec b6 e3 3c
       -0.0078772865 0.0074677323 0.013732334 0.027797185
000040 48 bb 27 3d 85 7a f6 b8 65 5d 17 3d 8c fd 30 bd
       0.04095009 -0.00011753015 0.036954302 -0.04321055
000050 54 d3 6b 3d 87 13 8b 3b 6b 4e 71 bd 90 bd 0e 3d
       0.057574585 0.004244271 -0.058912676 0.03484875
000060 98 6f 63 bd 7d 7a 17 bd 7a da 66 bc de b6 70 bd
       -0.055526346 -0.03698205 -0.014090175 -0.058768146
000070 6a 64 5a bd 47 f1 2e bd bf a8 7a 3b 1f 5b e7 bb
       -0.05331842 -0.04271057 0.0038247553 -0.007060423
000080 bc 4c 52 bd 43 ed 72 3c 67 c6 34 3c 18 ae 97 bd
       -0.05134271 0.014827075 0.011033631 -0.074062526
000090 3d bb d2 3c 15 93 70 bd 86 1d 16 bc 80 56 09 bd
       0.025724048 -0.05873402 -0.009162312 -0.03352976
0000a0 92 52 5b bd 1f f6 28 3c 93 1c 4a 3d 04 29 e7 3c
       -0.053545542 0.010312586 0.049343657 0.0282178
0000b0 d8 8b 4b bd a3 99 78 ba d9 29 1e 3c c7 92 82 3d
       -0.049693912 -0.0009483343 0.009653532 0.06375652
0000c0 bc b2 13 bd 5a d2 37 bc 10 0a 30 3d c8 f0 07 3d
       -0.036059126 -0.011219585 0.042978346 0.03318861
0000d0 96 76 52 bd fe db 18 3d 6b 67 5d bd ef b5 8b bd
       -0.051382624 0.037319176 -0.054053705 -0.068218105
0000e0 d9 94 71 bc aa 65 20 bc 68 37 30 3b 33 20 06 bd
       -0.014744961 -0.009789864 0.0026888493 -0.03274555
0000f0 71 e1 f2 3c dd 15 ca 3b 80 3d 6d 3d d9 69 13 3d
       0.029648514 0.006167157 0.05791998 0.035989616
000100 05 97 76 bd 2f a1 80 3d c9 a4 81 3d a5 93 0b bc
       -0.060202617 0.06280743 0.063302584 -0.008519088
000110 59 28 31 bd 9c 37 26 3d 37 5e 6a bc 5d 11 4d 3d
       -0.04325137 0.040580377 -0.014304689 0.050065387
000120 c0 16 19 bd 59 82 82 3d b8 06 7a 3d 65 df 5a bd
       -0.03737521 0.06372518 0.061041564 -0.053435702
000130 19 00 2f 3c 8a f7 f1 bc a4 85 6b 3b b8 6b 19 bd
       0.010681176 -0.029536981 0.003593781 -0.037456244
000140 c8 ff 36 bd 5b b0 15 bd 8f 2d cd bc a2 73 89 bd
       -0.044677526 -0.03654514 -0.025046138 -0.06711508
000150 15 6b 76 3c 5d 86 5b bd ff d6 38 bd 29 52 c4 bc
       0.015040179 -0.053594936 -0.04512691 -0.023964958
000160 e9 b7 7f 3d 8b e3 32 bd 67 c1 5d bd bb 12 c4 bc
       0.06243125 -0.043674033 -0.05413952 -0.023934713
000170 a4 87 d5 3c 39 8d 29 3d 66 cc 1f 3d f7 a5 7c bc
       0.026065655 0.041394446 0.03901329 -0.0154204285
000180 a0 e5 d6 3c ec 1c 85 bd 7b 4b f8 bc 97 e3 df bb
       0.02623254 -0.06499657 -0.03030943 -0.0068325507
000190 56 f7 10 bd 67 db 46 bd 9c 42 73 3d 1b 30 85 bd
       -0.035392128 -0.048549082 0.059389696 -0.06503316
0001a0 dd 26 24 bd 26 3e 24 ba cc ed 80 bd de fa e1 bc
       -0.040076125 -0.00062653644 -0.06295356 -0.027585443
0001b0 98 5c 46 3d 61 ca 76 bd 89 da 07 3d e1 41 79 3d
       0.048428148 -0.060251597 0.033167396 0.060853843
0001c0 b5 5b a1 bc a9 c6 41 3d 59 e3 6f 3d 1b 3e b1 bc
       -0.01969705 0.047308598 0.058566425 -0.02163606
0001d0 ad 63 a4 3c 36 c9 59 3d 8b a5 ab bc 2f 03 c6 bc
       0.02006706 0.053170405 -0.02095296 -0.02417144
0001e0 d3 27 61 3d 04 8a fd bb 8c 7c 66 3d 49 a8 19 3d
       0.05496962 -0.0077374 0.05627112 0.037514005
0001f0 a1 5e 7b bd 84 06 39 3d 22 8b 8d bd 31 5d ea 3c
       -0.061369542 0.04517223 -0.06911303 0.02860889
000200 d6 5f 3c 3d 4c 99 6e bd 47 92 42 bd 04 49 9e 3c
       0.045989834 -0.058251664 -0.047502782 0.019321926
000210 29 03 b8 bc 6e f0 81 bd de 54 52 3d e0 2c e3 bc
       -0.022462444 -0.063446864 0.051350467 -0.027731359
000220 5f 1a 25 bc b4 f9 1a bd a0 37 80 bc 7f d5 93 bc
       -0.010077088 -0.03783579 -0.015651524 -0.018046139
000230 2a e1 8d bd c6 0b a5 3c 33 af c2 3c 0d e9 ed 3c
       -0.06927712 0.020147216 0.023765182 0.029041791
000240 2f 1c ff bb ac 8b 9d 3c 5b b1 45 3d aa 81 12 bd
       -0.007785342 0.01923164 0.048264842 -0.03576819
000250 69 98 2f 3d 07 56 fa 3c c6 20 50 bd 70 30 d8 3c
       0.04286996 0.0305586 -0.050812505 0.026390284
000260 f0 62 84 bd ec 68 22 3d cd b1 2f bd dc d1 40 3d
       -0.06464183 0.039650843 -0.042894173 0.047075137
000270 0e e9 c2 bc 6e e2 03 3d 14 81 14 3d 0b d4 66 3d
       -0.02379277 0.032198362 0.03625591 0.056354564
000280 97 64 0c 3d 8d 88 30 bd 0f 1a c5 bc b3 1b 16 3d
       0.034275617 -0.043098975 -0.024060277 0.03664751
000290 75 51 13 bd 9b f3 1c 3d 27 58 30 3b a7 a3 60 bd
       -0.035966355 0.038318258 0.0026908012 -0.05484357
0002a0 33 98 f9 3c 51 e6 95 bd bc 2e 66 bd b1 e3 17 bd
       0.030468082 -0.0731932 -0.056196913 -0.037082378
0002b0 d3 10 0a bd 0c 92 88 3d 25 15 72 3d ae 42 02 3d
       -0.03370745 0.06668481 0.059102196 0.031801872
0002c0 be b2 af 3c f7 45 58 bd 03 7f 5b 3d 2d 76 45 3d
       0.021447536 -0.0528011 0.053587925 0.048208404
0002d0 4d a6 8b 3d a5 c6 6b bc 54 ac 09 3d 9e c5 6c bd
       0.06818829 -0.014390622 0.03361161 -0.05780565
0002e0 d3 5b 63 bd 8e a8 3c bd f5 0e 6c bd 0c c9 8f bd
       -0.055507492 -0.046059184 -0.05763145 -0.070207685
0002f0 ad b6 ce 3c 01 73 7c 3d b1 18 3d 3d cd 41 2e 3b
       0.025233591 0.061633114 0.046166126 0.0026589513
000300 d3 a3 f4 3c 3f a3 eb 3c 45 fe de 3b ca 66 7f bd
       0.029863274 0.028764365 0.0068052136 -0.062353887
000310 c0 32 3e bd fc c6 35 3c b9 7e 69 3d bf 3c 2b 3d
       -0.046435118 0.011094805 0.057005618 0.04180598
000320 64 39 88 3d d8 c3 8c bd 61 0a 69 bc 32 da 36 3d
       0.066515714 -0.06873292 -0.014223666 0.04464168
000330 de f6 6f bd fc 9d 9b 3b 24 92 aa 3c e9 0a 8a 3c
       -0.05858504 0.004749058 0.020821638 0.016850905
000340 6e 20 3e 3d a5 76 57 bc 10 c9 84 bb 11 0e 30 3d
       0.046417646 -0.013150846 -0.004052289 0.042982165
000350 0c ca 76 bd 8d 33 49 3c a4 f1 74 3c 79 2c c9 bc
       -0.06025128 0.012280357 0.01495019 -0.024557339
000360 59 1e 44 3c 74 8b 01 3c ac c8 1c 3d 3a 34 72 bd
       0.011970126 0.007906783 0.038277313 -0.05913184
000370 c7 9a 0e 3d 20 43 70 3d 51 96 20 bd 21 71 ec bb
       0.034815576 0.058657765 -0.039205853 -0.0072156345
000380 e2 c7 42 bc d4 99 91 3c af d2 38 3c d5 22 1f 3d
       -0.011888476 0.017773546 0.0112807 0.038851578
000390 f1 ca 4d bd 16 4d 8b bd 93 66 c1 3c 16 9d da 3c
       -0.050242368 -0.06801812 0.023608482 0.026686233
0003a0 c1 2d 06 bd 61 2c 55 3d 35 7a 01 3c d3 69 d3 3a
       -0.032758478 0.052044276 0.007902672 0.001612956
0003b0 c7 a9 59 3d 3b e5 10 3d dd fd 6f 3d e9 af 2c 3d
       0.053140428 0.03537486 0.058591712 0.04215995
0003c0 37 5c 84 bd 2d 62 55 bd 12 4c 28 3d ba 6f 02 bc
       -0.06462901 -0.05209558 0.04108817 -0.007961208
0003d0 af ae 31 bd 48 94 f3 b9 c3 90 2c 3d 5d 7e 1a 3d
       -0.043379482 -0.0004645905 0.042130243 0.037718166
0003e0 78 d4 8d bd 76 ee 25 3a fe 40 47 bd 4e ac a5 3b
       -0.06925291 0.0006329784 -0.048645966 0.0050559407
0003f0 06 4b c3 bc 88 08 83 3d 20 29 1f bd 25 d5 5c bc
       -0.023839485 0.063981116 -0.03885758 -0.013478552

features.2.bias f4 [16]
000000 23 89 74 bd 51 f8 48 3d 7d 48 a1 3c 45 9a 4f bd
       -0.059701096 0.049064938 0.019687885 -0.050684232
000010 56 b9 0e bc 36 a5 99 bc 23 f6 73 bd be 6d 9f bd
       -0.00871118 -0.018755537 -0.059560906 -0.077846035
000020 64 5d 5c 3d 63 40 ad 3c a1 16 72 bd 93 68 99 3c
       0.0538 0.021148866 -0.05910361 0.018726623
000030 5d 2a 8b bc e6 1e 64 bb ef 16 11 bc 9f 99 7f 3d
       -0.016987974 -0.0034808456 -0.008855565 0.062402364

regressor.1.weight f4 [1, 10528]
000000 6a 8f a3 bb dc 04 cb 3a f3 55 4b 3b 38 6a 7c 3b
       -0.0049914615 0.0015489119 0.0031026572 0.003851546
000010 92 77 d2 bb 30 b2 7a 3b c5 f4 03 3b fe 8a 75 3b
       -0.0064229453 0.003825318 0.0020134908 0.003746688
000020 41 a1 63 3a 2f 68 8f bb aa 3e a6 bb 6a 28 35 3b
       0.00086833915 -0.0043764333 -0.005073388 0.0027642497
000030 ef 72 2e 3b 9a e0 2a 3a ba 95 c0 ba d4 06 1d 3c
       0.0026618799 0.00065184536 -0.001469306 0.0095841475
000040 d9 88 dd 3b 8b 33 0d 3b 58 a1 99 bb 46 6b 77 3a
       0.0067606983 0.0021545615 -0.004688423 0.0009438287
000050 48 a1 99 bb 15 fe 07 b7 e5 70 81 bb 25 99 1d bb
       -0.0046884157 -8.105785e-06 -0.0039502257 -0.002404758
000060 57 30 d8 3b ac ee 2a ba d8 4d 99 3b 73 6b bb bb
       0.0065975594 -0.000652055 0.004678469 -0.005719596
000070 8f e1 b2 bb dc 9c 33 bb 04 a9 ac ba aa 40 92 3b
       -0.0054590176 -0.0027406728 -0.0013172929 0.004463275
000080 ed fd 48 3b 6c 45 79 ba f0 10 3f 3b 4e e4 cd ba
       0.003066893 -0.0009508941 0.0029154383 -0.0015708299
000090 57 15 4d bb 65 d2 c0 bb b6 34 ab bb 4b b0 17 bb
       -0.0031293237 -0.005884456 -0.0052247895 -0.002314585
0000a0 5f 2c be bb 04 4b 40 bb 6a e9 0c 3c 27 d7 a4 bb
       -0.0058036293 -0.0029341588 0.008600572 -0.005030531
0000b0 ff 86 71 bb 93 22 f7 38 c0 a8 54 b8 3c 3b b0 b9
       -0.0036854146 0.00011784318 -5.07019e-05 -0.0003361347
0000c0 83 43 b0 3b 9c 54 db 3b 65 46 a1 3a a8 77 74 3b
       0.005379142 0.006693436 0.0012304304 0.0037302766
0000d0 88 19 02 bb b3 42 ad 3b 02 e8 97 3b 62 22 a8 3b
       -0.0019851644 0.005287492 0.004635812 0.005131052
0000e0 1a 2b 3a 3a db 2a 92 3b c3 13 fa 3b a5 6c a6 3b
       0.00071017595 0.004460675 0.0076317503 0.0050788694
0000f0 30 61 2f 3a aa c7 e3 bb 40 b3 fd b9 3d 43 f4 ba
       0.0006690202 -0.006951292 -0.00048389472 -0.0018635761
000100 37 00 08 3c 51 47 83 3b 7d a1 01 bc e9 4a da 3b
       0.0083008325 0.0040063043 -0.007912037 0.006661762
000110 fc 0c 88 bb 9c 0d d2 bb cf 3e c8 bb c3 35 a3 39
       -0.0041519385 -0.006410314 -0.006111003 0.00031129838
000120 54 4a 10 3c 3b 92 58 3b 63 1a 92 bb 5a 96 8c bb
       0.008806784 0.0033046145 -0.004458712 -0.0042903842
000130 5f da 9b 3b 79 ab 03 3c f6 93 d2 bb aa a0 78 bb
       0.0047562565 0.008036488 -0.0064263297 -0.003793756
000140 d9 9d 77 ba b7 b5 c2 3b 69 62 83 bb b5 96 30 3b
       -0.00094458234 0.0059420723 -0.004009534 0.0026945297
000150 ba b7 15 3b be 3c 0d bb 25 6c 1e 3b 4f 4f 31 3a
       0.0022845105 -0.0021551098 0.0024173346 0.0006763832
000160 3b 6a b8 3b 2d e7 ea bb 20 74 86 bb ad e9 82 bb
       0.005627898 -0.0071686716 -0.0041031986 -0.0039951415
000170 be b4 99 3b 47 08 87 bb 5d eb 9c 3a 70 be e0 bb
       0.0046907356 -0.00412086 0.0011971999 -0.0068586394
000180 b4 f8 a6 3b ec 6f c4 3b a6 00 a6 3a bb 2c 4b 3a
       0.0050955657 0.0059947874 0.0012664988 0.0007750501
000190 5c 7f 82 bb f5 51 fb ba a6 e8 d9 3a 34 8b 0d bb
       -0.0039824676 -0.0019174205 0.0016625121 -0.0021597864
0001a0 38 36 2e 3b 2e 7c db 3a 82 3e f6 3a ce cd 1e ba
       0.002658261 0.0016745382 0.0018786939 -0.0006057889
0001b0 92 11 74 bb fc f1 37 3b 05 a2 98 3b 80 21 f2 bb
       -0.0037241918 0.0028067818 0.004657986 -0.0073892474
0001c0 ad 68 f3 ba 1f a5 1e 39 f2 6a 35 3c 75 9d 4a 3c
       -0.0018570625 0.00015129567 0.011072861 0.012366642
0001d0 29 48 81 3a 22 c8 fe bb a2 06 c1 bb a3 d2 9c bb
       0.0009863424 -0.0077753225 -0.0058906833 -0.004785852
0001e0 de 2f 60 bb 9d 5d ac 3a af 9d d1 bb 70 43 94 3b
       -0.0034208219 0.0013150458 -0.006396971 0.0045246407
0001f0 b0 6a cb bb 37 ff 23 3c ee 81 5e 38 f4 d4 ea b9
       -0.0062077865 0.010009578 5.304993e-05 -0.0004479062
000200 19 7b bc bb 55 23 96 bb d9 de 0d bc c4 0b d0 bb
       -0.005751979 -0.0045818486 -0.008659088 -0.006349059
000210 33 6b c0 bb 50 2c b4 bb 74 26 68 3b c1 46 a4 3b
       -0.005872154 -0.0054984465 0.003542331 0.0050133173
000220 ab 5a 89 3a 52 1c bd bb ae ac 66 ba d1 3c ba bb
       0.0010479292 -0.0057711983 -0.0008799535 -0.0056835194
000230 a6 7c 6a 3b 1b bc e8 3a 17 33 09 3b bd 5c c4 3b
       0.0035779863 0.0017756255 0.0020934993 0.0059925006
000240 55 0b 07 3b 9a 1e 8f bb 66 5e 94 bb 7c e2 f5 3b
       0.002060612 -0.0043676617 -0.0045278547 0.0075038057
000250 94 6e 94 bb 35 4d 1c 3a a5 42 8f 3b 06 a2 15 3b
       -0.0045297835 0.00059624325 0.0043719583 0.002283217
000260 09 8b df bb 8e 72 81 39 6a 70 c5 3b cd f6 83 3b
       -0.006821994 0.00024690147 0.0060253637 0.0040272237
000270 cb a0 88 bb 1c 17 05 bb cd a1 8f 3b 9a d5 e9 3b
       -0.0041695586 -0.0020307964 0.004383302 0.007136059
000280 97 e9 0c bb 3a 04 d0 bb 41 78 8a 3b 4b 94 7a 3b
       -0.0021501535 -0.00634816 0.004225761 0.0038235362
000290 56 0d b8 3b 2d 19 cd 3b 08 29 de 39 55 39 18 bb
       0.005616824 0.0062591047 0.0004237371 -0.0023227532
0002a0 0f 62 0a 3b 27 00 13 bb 77 b7 b0 bb 7b 83 d5 3b
       0.0021115576 -0.002243051 -0.0053929645 0.006515918
0002b0 90 46 47 3b 95 db b0 3b 2c 2f 95 3b 83 e8 a1 3b
       0.0030407049 0.00539727 0.0045527425 0.0049410476
0002c0 1a 8e c5 bb 89 9a 42 bb b7 d8 22 3c 02 31 a4 bb
       -0.0060289027 -0.002969416 0.009939364 -0.005010725
0002d0 ca a6 b5 bb ca a8 e1 3b 46 e3 a6 b9 e5 8f 45 3a
       -0.0055435644 0.0068865763 -0.0003183132 0.00075363956
0002e0 b1 d8 ed 39 7a e8 b7 3b 70 e9 01 3c af c7 46 b9
       0.0004536561 0.00561243 0.007929191 -0.0001895714
0002f0 81 4d 97 ba 74 97 df bb 8c a8 e7 3a 80 2d 92 3b
       -0.0011543484 -0.0068234745 0.0017674132 0.0044609904
000300 58 7e f0 bb 1e 13 c9 3a 78 67 3b ba 57 1f 4f 3b
       -0.00733928 0.001534078 -0.0007148902 0.0031604373
000310 76 7c 20 ba 73 72 8c b8 c7 7a 5d bb 6b 6f a2 ba
       -0.0006122062 -6.697038e-05 -0.0033795105 -0.0012392824
000320 64 8a b8 3b a2 64 c3 ba e1 3d f3 bb 27 01 f8 3b
       0.005631732 -0.001490731 -0.007423148 0.0075684967
000330 5e 65 cc bb 42 2e 0a bc f0 da 3b bb 3e dc 70 bb
       -0.00623767 -0.00843388 -0.0028664432 -0.0036752368
000340 73 9a 97 3b 7d f9 5b 3b 35 a2 05 bc 90 e7 11 3b
       0.004626566 0.0033565455 -0.008156349 0.0022263266
000350 18 02 9e 3b a7 47 2b ba fd 93 fe bb e0 dd df bb
       0.004822027 -0.00065338094 -0.0077691064 -0.0068318695
000360 70 08 28 b9 df d2 57 3b b6 41 a9 bb aa d2 03 bc
       -0.00016024872 0.0032932085 -0.005165304 -0.008045832
000370 5c be 03 3b b4 e0 fe bb 4a ee 9b bb ac 7f f6 3b
       0.0020102477 -0.0077782515 -0.004758631 0.007522544
000380 8c f7 03 3c 41 92 4d 3b cf 97 15 bb f3 03 d4 3b
       0.008054625 0.0031367692 -0.002282608 0.0064701973
000390 aa 77 10 3c 37 b4 1f 3b 67 4c 8b bb 6a 47 8e bb
       0.008817593 0.002436889 -0.004251051 -0.0043420093
0003a0 b0 cd 2c 39 6e d6 5d bb d7 4a 20 3c bb d8 b1 3a
       0.00016479823 -0.0033849734 0.009783468 0.0013568619
0003b0 d0 49 16 3c cb bf b7 3a 36 0f 6c 3b d4 c4 1c bb
       0.009172872 0.0014018951 0.0036019809 -0.002392103
0003c0 2b 11 35 bb b4 a7 1d 3c c0 f2 74 3a 3f 78 60 bb
       -0.002762864 0.009622503 0.0009344034 -0.003425136
0003d0 4a 6a 49 3b 44 79 e1 bb aa 64 c9 3b 95 59 cf ba
       0.003073352 -0.006880911 0.0061460333 -0.0015819544
0003e0 5c 16 c9 bb b4 14 86 bb 06 d9 d8 bb d0 a8 b1 bb
       -0.0061366986 -0.0040918235 -0.006617668 -0.0054217353
0003f0 ee 29 23 ba 65 93 e2 bb 40 db 85 3b 51 ce 9e 3b
       -0.00062242046 -0.0069145435 0.0040849745 0.004846372
